models/decoder.onnx (onnx, 176120 bytes, 17 tensors)

decoder_lin.0.weight f4 [128, 2]
000000 39 82 b5 ba b3 5a f7 37 a9 3f 8b 3e e6 6c 83 be
       -0.0013848013 2.948693e-05 0.27197006 -0.2566902
000010 41 7d aa bb 00 f1 84 3b ea 94 b2 b0 9c e9 8e 2d
       -0.0052029197 0.0040570498 -1.2993528e-09 1.6247274e-11
000020 21 17 7c 3c b3 65 0d 3b 55 67 00 00 32 9a 00 00
       0.015386374 0.002157551 3.7069e-41 5.5315e-41
000030 a7 88 68 3c f1 4f ac bd 13 9e 74 3c a7 a4 bc bd
       0.014192737 -0.08413685 0.014930266 -0.092110924
000040 1e b2 ae 39 5e e7 3c b9 e8 d7 3b 2a 99 2c b1 2c
       0.00033320574 -0.00018015268 1.6683844e-13 5.035594e-12
000050 3e 59 30 be 4e 70 23 be 90 5b 85 39 72 69 a3 bb
       -0.17221543 -0.1596081 0.00025435956 -0.0049869353
000060 8e fc 11 8c b8 c0 02 80 ba 11 9f 98 5a 79 a3 98
       -1.1246394e-31 -2.52805e-40 -4.1118436e-24 -4.2257046e-24
000070 55 28 63 37 1f 1a 92 38 e2 c5 b6 3c d3 5b 62 3e
       1.3539645e-05 6.966688e-05 0.022311155 0.2210534
000080 fb fb 1d 38 3a 90 d6 3c a8 ae 5c 3e 47 0f fe 3d
       3.7666392e-05 0.02619182 0.21551001 0.12405258
000090 35 c7 08 80 1c 51 95 a7 4c 81 b4 bc 18 27 d0 3d
       -8.06146e-40 -4.1443747e-15 -0.02203431 0.101637065
0000a0 61 6e cb 37 2a 32 0f 3a 9f 1a f2 3b ac 82 c8 39
       2.4250885e-05 0.0005462492 0.0073884274 0.0003824433
0000b0 76 d7 9f 3a 9e 84 0a bb 15 09 10 26 02 b3 6a ad
       0.001219495 -0.0021136175 4.9972345e-16 -1.3341108e-11
0000c0 58 d3 36 be 85 03 a5 3d ff e8 ee bc 3d fc 36 bc
       -0.17854059 0.08057312 -0.029163836 -0.011168537
0000d0 be 9f 48 36 0a cb e2 33 5e 41 a0 bc dc 72 fa bc
       2.9895305e-06 1.0560878e-07 -0.01956242 -0.030572347
0000e0 f3 4b 90 2c ad 18 07 30 f8 47 9b bd ea 8e 2a 3e
       4.101158e-12 4.914778e-10 -0.07582086 0.1665608
0000f0 5b 18 85 2e 70 c5 e4 37 03 ea 1e 3c 09 a2 64 bd
       6.052466e-11 2.7271657e-05 0.009699347 -0.05581859
000100 8c 8b 80 3e d4 17 b4 3d 24 ac 16 08 1e 6b bd 91
       0.25106466 0.08793607 4.5341333e-34 -2.9884958e-28
000110 20 7d db 3d 75 c4 30 3d 68 8b 83 82 88 58 f0 ad
       0.10717225 0.043156106 -1.9328735e-37 -2.7324157e-11
000120 c0 65 1e 3c 45 c3 73 3c 80 27 ad b7 39 0f c1 2f
       0.009667814 0.014878099 -2.06416e-05 3.5117312e-10
000130 c6 7d 51 05 61 5d 00 80 6c ad 10 a5 58 93 02 00
       9.850234e-36 -3.3498e-41 -1.2548767e-16 2.36528e-40
000140 cc 42 6e 8e a6 d7 10 91 f3 77 c5 37 ce c6 53 b9
       -2.9367926e-30 -1.1426049e-28 2.3540086e-05 -0.00020196589
000150 00 aa 51 bc 24 00 63 3d 2b 24 b4 96 e6 f6 13 8f
       -0.012796879 0.055420056 -2.9103394e-25 -7.2952105e-30
000160 24 c9 82 3d ad 2c 23 3e 08 f4 d5 bc 74 a8 31 3d
       0.06386021 0.15935011 -0.02611734 0.04337354
000170 b1 33 01 39 92 92 06 bb 44 bd c7 a0 a4 70 2b 06
       0.00012321655 -0.002053414 -3.3837157e-19 3.224428e-35
000180 0a bc 27 05 ff d5 25 9e c0 aa 21 3a e7 64 81 38
       7.8868396e-36 -8.779281e-21 0.00061671063 6.169994e-05
000190 bc 82 da 3c 29 c6 03 3d 7e 45 16 2d 7c bc 35 28
       0.026673667 0.032171402 8.541943e-12 1.0088389e-14
0001a0 1b b8 d7 bd 59 e3 6a 3e 52 10 30 3e 8b b8 95 3d
       -0.10533162 0.22938289 0.17193726 0.073105894
0001b0 2e 96 2e 33 5c 74 87 9e 41 d5 48 ba f0 38 7f 3c
       4.064912e-08 -1.4341806e-20 -0.0007661172 0.01557754
0001c0 5d 7a a6 bd 6b c7 ca bd 37 a5 42 3a 3a ef 96 bd
       -0.08128808 -0.09901317 0.00074251316 -0.073698476
0001d0 92 bf b4 08 04 c2 9f 0a 6a 04 91 b7 13 a3 8f 37
       1.0878394e-33 1.5384124e-32 -1.7287402e-05 1.7122866e-05
0001e0 dc d8 34 3a 33 65 86 3d df e1 aa 3d 3c 4d 82 be
       0.00068987696 0.06562271 0.08343863 -0.2544955
0001f0 ef e3 00 bc 85 a0 31 bc 90 47 06 80 b5 3d 9e 0b
       -0.007866844 -0.0108414935 -5.76685e-40 6.095223e-32
000200 59 89 92 bd 5f 73 4a bd 29 36 59 be 7f fd 81 be
       -0.07155103 -0.049426433 -0.21212067 -0.25388715
000210 c8 d6 03 b4 7c 78 44 32 5d 50 3c be 2b a9 f1 3d
       -1.2278463e-07 1.14360965e-08 -0.18390031 0.11799844
000220 ce bf 04 2f 44 cf e4 b4 38 68 e8 3d 7b 39 25 3d
       1.2073473e-10 -4.2619115e-07 0.11348003 0.04033802
000230 9f ef c5 3b 10 3d 8a 3c 26 95 18 3d 77 8f f3 bd
       0.006040528 0.01687482 0.037251614 -0.11892598
000240 34 0c 30 bc c3 27 9b bc 86 bd 25 bd e7 e3 51 bc
       -0.010745097 -0.018939858 -0.040463947 -0.012810684
000250 13 b1 b8 93 fd d0 ef 13 1c c8 a7 91 4c a2 04 00
       -4.662274e-27 6.053816e-27 -2.647128e-28 4.25563e-40
000260 ee da 5b 3c 98 c7 a0 bd 47 64 d3 bd ae 8f d8 bd
       0.013418896 -0.078505695 -0.10321861 -0.1057428
000270 bb 84 07 33 a0 1d 15 30 c7 6a cc 3d 33 b4 28 3d
       3.1552855e-08 5.4247984e-10 0.09981304 0.041187476
000280 51 f9 0d ab aa 7f c5 27 de 5d 1c bd 7d 0d 22 3b
       -5.043926e-13 5.4816898e-15 -0.038175456 0.0024727278
000290 51 29 01 00 5c 67 02 00 e5 f8 2d 37 74 8b f4 32
       1.06657e-40 2.2075e-40 1.0369554e-05 2.8468754e-08
0002a0 b7 c8 10 b1 0a b4 8a b3 e2 55 69 bb e4 07 d3 bc
       -2.106885e-09 -6.458875e-08 -0.0035604169 -0.025760598
0002b0 36 25 64 bd 49 1a c8 bd 09 18 0c 3d 72 53 0c 3b
       -0.05569955 -0.097706385 0.03420261 0.0021412042
0002c0 be 8e c5 ba 7f 62 90 bb 07 29 ec bd 78 56 89 bd
       -0.0015072448 -0.004406273 -0.11531263 -0.06705946
0002d0 bd ec 00 80 6d 17 01 80 ac 5e 88 3a 0d f8 8d 32
       -8.4926e-41 -1.00239e-40 0.0010404191 1.652736e-08
0002e0 6c 9e ba b6 f7 ce 59 ad 83 5f 1b 00 e4 2e 01 00
       -5.5616747e-06 -1.2380977e-11 2.513822e-39 1.08657e-40
0002f0 c2 25 51 bd 57 14 88 bc c7 70 3f 3e af d6 a3 bd
       -0.0510614 -0.016611261 0.18695365 -0.07999932
000300 b9 0c bb 39 c8 98 d8 3a fb 47 46 3e fe 88 86 3e
       0.000356769 0.0016525025 0.19363396 0.26276392
000310 02 90 90 ba dc a8 c9 3c e1 6e 01 00 a3 93 03 00
       -0.0011029246 0.024616651 1.31611e-40 3.28469e-40
000320 d8 18 57 3d 8d 1c ca bd 31 03 85 be dd 9e 19 be
       0.052513927 -0.09868727 -0.25978997 -0.15002008
000330 f0 a1 87 be 18 b8 96 3d a0 76 9f b0 32 50 7b 10
       -0.26490736 0.07359332 -1.1602488e-09 4.9562802e-29
000340 b9 47 59 3b 07 e7 52 bd 30 91 8c bd 10 fa 55 3e
       0.0033154322 -0.051489856 -0.0686363 0.20896173
000350 80 7a 86 b8 09 28 dd 39 0e 73 b6 2a 69 01 8f b4
       -6.412435e-05 0.00042182233 3.240953e-13 -2.6636852e-07
000360 86 e9 17 3c 5e 6a b3 ba 8f c9 1e b0 e4 0a 11 2e
       0.009271985 -0.0013688316 -5.7766497e-10 3.2978856e-11
000370 a4 b0 cf 9b fe c3 4a 99 5d ff 20 bd 77 76 8b 3d
       -3.4359429e-22 -1.04827355e-23 -0.039306033 0.06809705
000380 06 45 a6 38 b0 1e 87 3a 39 ff 41 be c1 20 a0 3d
       7.9283534e-05 0.0010308828 -0.18945016 0.07818747
000390 d9 a6 18 3b d8 bc 93 bc cd 3b f7 3d ad 5c 3b bd
       0.0023292808 -0.018034384 0.12071953 -0.04574268
0003a0 0a e6 31 b7 3d cb 50 33 3a bf 4d bd 36 b9 f6 3d
       -1.0603582e-05 4.8613618e-08 -0.050231196 0.12047045
0003b0 f1 1f 26 3d 5d 2f a8 ba 8b d3 58 3a f3 af e4 bb
       0.040557805 -0.0012831498 0.00082712685 -0.0069789826
0003c0 8a 19 90 b4 b1 c6 8d b4 99 db 81 3b 5b 80 82 39
       -2.6840672e-07 -2.6407864e-07 0.0039629457 0.00024891165
0003d0 61 cd 01 3e 13 54 94 bd e5 ab 67 b6 2a ef 7c 31
       0.12676002 -0.072425984 -3.4521738e-06 3.6806775e-09
0003e0 e3 ab 2a 3d f5 89 76 3d fb e9 68 3e 53 f2 24 be
       0.04166783 0.06019016 0.22745506 -0.16108064
0003f0 09 43 2b 3e 41 13 84 3e 36 98 81 b0 fc 64 89 b9
       0.1672479 0.2579594 -9.429246e-10 -0.00026205915

decoder_lin.0.bias f4 [128]
000000 60 03 95 bc eb 59 05 bc 26 2d a0 39 c8 c4 d8 b4
       -0.018190086 -0.008139114 0.00030551216 -4.0376312e-07
000010 e4 4a fd bb 20 97 c7 9f 53 b7 ad 3c 58 14 5a bb
       -0.007729875 -8.4529794e-20 0.02120558 -0.0033276286
000020 74 1c 36 bc be ca b2 b3 91 29 37 bd bd 73 1e bb
       -0.011115182 -8.3256495e-08 -0.044717375 -0.0024177872
000030 fd a0 6a a8 a2 04 80 99 27 bc 92 b7 16 3f 27 3d
       -1.3024518e-14 -1.3236761e-23 -1.7492172e-05 0.040831648
000040 04 3a 87 bb 90 5c ad bb c3 ba ed a7 59 cc 05 3d
       -0.004126789 -0.0052905753 -6.59832e-15 0.032665584
000050 10 73 d4 bc d0 fe 86 bb ac 34 4a ba fe 56 3a b2
       -0.025933772 -0.0041197315 -0.0007713537 -1.0846405e-08
000060 f0 2c 6c 3b 54 8e 43 bc e0 ad 13 bb e5 26 e4 3a
       0.0036037527 -0.011935789 -0.0022534057 0.0017406611
000070 de 60 48 b4 41 5b 3f 3d 43 73 28 bc de de 17 bb
       -1.8661692e-07 0.046717886 -0.010281387 -0.002317361
000080 af 27 c0 bc 78 58 2a ac ee 23 05 bc 65 f9 09 ae
       -0.023456423 -2.4207563e-12 -0.008126242 -3.13717e-11
000090 c2 63 73 3a 1a cb 4d b8 9c 93 98 a5 97 d9 00 a6
       0.00092845794 -4.906496e-05 -2.646782e-16 -4.470381e-16
0000a0 4d 24 fc 91 93 66 7f ba 8c 96 d6 3b 4c 99 e2 a4
       -3.9780962e-28 -0.0009742763 0.0065487083 -9.827157e-17
0000b0 0f 78 9c 3b d9 18 0a 3c a1 f0 87 ba 50 ed eb a2
       0.0047750543 0.008428776 -0.0010371396 -6.394814e-18
0000c0 1c 4c 4c a4 a4 c4 9f b9 cd e4 d2 3b 8b 27 88 b2
       -4.4299916e-17 -0.00030473352 0.0064359666 -1.5850466e-08
0000d0 66 c0 22 bc ac df 46 bc 78 cd 40 b5 e4 f1 27 bb
       -0.009933567 -0.0121382885 -7.182457e-07 -0.0025626356
0000e0 b8 ff 4a bd 2e f3 ea bc e9 5b 96 8b 9b a8 48 b9
       -0.04956028 -0.02868041 -5.791619e-32 -0.00019136297
0000f0 01 f9 06 bc c6 3a 92 3a 83 6c 41 3a e6 90 51 94
       -0.008238078 0.0011156432 0.0007378535 -1.058038e-26
000100 34 78 e8 ba b2 4a 44 3d 6b b0 66 b7 23 c5 03 3c
       -0.0017736019 0.047922798 -1.3750144e-05 0.0080426065
000110 d7 12 07 b6 5e 03 4f bd 4b 5d b6 39 fb b9 04 bd
       -2.0127534e-06 -0.05054032 0.00034783254 -0.032403927
000120 5a d4 4e 3a 8e da 80 bc ce d4 b6 94 55 63 0c 9f
       0.0007889919 -0.015729215 -1.846124e-26 -2.972832e-20
000130 d4 33 53 bb 3f 12 c5 bc de ca ff b6 bf 0e f2 bb
       -0.0032226937 -0.024056552 -7.623209e-06 -0.007387012
000140 15 d5 ae b3 77 a9 43 bc 6a b1 a3 ab 5e 25 9d b7
       -8.141266e-08 -0.011942259 -1.1631089e-12 -1.8733259e-05
000150 98 1a 51 b6 b4 be 76 3b 59 82 07 bd 6b 59 8f bc
       -3.1158906e-06 0.003765029 -0.033083294 -0.017498692
000160 87 49 eb ba 88 fc 85 3d b8 7c 1a a2 a1 b5 9a bc
       -0.001795099 0.06542307 -2.0936917e-18 -0.018885436
000170 c1 aa 59 b8 ce e5 05 98 76 c3 84 bc 79 c9 6f ba
       -5.189586e-05 -1.7305869e-24 -0.016206484 -0.0009147148
000180 a4 d0 86 b9 d1 9f 9f bc d6 0b 8a bb 6f 45 bb a8
       -0.0002571392 -0.019485386 -0.0042128367 -2.0791283e-14
000190 7e 9d d9 3c bb 2e d5 3b 3b 2b 51 3d f3 bc 82 b6
       0.026564356 0.006505815 0.05106662 -3.8962985e-06
0001a0 a0 70 85 bb b5 c9 6c ba 0e 43 97 b8 06 2a 50 b6
       -0.004072264 -0.0009032742 -7.212731e-05 -3.1018876e-06
0001b0 16 a9 9c bb 86 f6 84 b5 55 6f ba b6 07 fa 57 3c
       -0.004780899 -9.906514e-07 -5.5561927e-06 0.01318217
0001c0 97 88 80 bc dd f3 c2 3a 52 e7 b8 bb 29 8a 70 3d
       -0.015690131 0.0014873702 -0.00564281 0.05872551
0001d0 f6 b4 78 b7 63 9d db 3c 2b 63 1e bc 17 97 18 bb
       -1.4824085e-05 0.026808446 -0.009667198 -0.0023283416
0001e0 53 f3 99 b7 33 7d 18 bb 5c 80 99 3b 41 2d 01 b7
       -1.8352328e-05 -0.0023267984 0.004684491 -7.699536e-06
0001f0 2b 00 97 bb 34 ac 2b bc 23 0c 50 bc fc c1 e7 b9
       -0.0046081743 -0.010478068 -0.012698206 -0.00044204283

decoder_lin.2.weight f4 [288, 128]
000000 9e a3 14 34 1c 7e f1 3c 5c be f4 b8 d5 0d 8b 83
       1.3843098e-07 0.029479079 -0.00011670284 -8.172861e-37
000010 f6 24 a9 b8 bf cf 05 00 be e5 ce 3a 7e 98 a4 3b
       -8.0654325e-05 5.33703e-40 0.0015785021 0.0050230613
000020 ee 6b 8b 36 11 3c 17 1a f3 84 d0 38 67 93 8f 39
       4.1550875e-06 3.127459e-23 9.9429766e-05 0.0002738491
000030 47 43 06 00 46 35 48 97 e5 fd 2b 35 46 77 b5 3b
       5.75148e-40 -6.4690726e-25 6.407193e-07 0.0055379
000040 f2 b1 66 38 51 53 8d bb 89 55 05 00 3e f9 88 3b
       5.5001998e-05 -0.0043129106 4.89862e-40 0.0041801026
000050 40 99 6c 2e 38 b7 a6 b8 f5 bf 5e 39 bb b0 02 00
       5.37963e-11 -7.949624e-05 0.0002124308 2.4707e-40
000060 af 17 cc ba 09 e7 d9 b8 b9 62 70 a4 24 0b ee ba
       -0.0015571023 -0.000103904 -5.2125326e-17 -0.0018161279
000070 f0 02 00 80 a7 ea a2 3b 42 48 c7 15 c3 05 67 3b
       -1.054e-42 0.0049718204 8.048946e-26 0.0035251237
000080 fc b6 15 bc 40 98 05 00 3b c7 55 bb bf 4d 00 80
       -0.009137865 5.13794e-40 -0.0032619971 -2.789e-41
000090 bd 30 a8 39 b7 f6 b8 1b fd 24 02 00 e7 49 04 00
       0.0003207977 3.0599682e-22 1.9694e-40 3.93853e-40
0000a0 e0 63 10 90 b7 bc a6 33 28 34 ab 3a a8 7f 01 80
       -2.8475933e-29 7.7643044e-08 0.0013061808 -1.3763e-40
0000b0 82 bd 11 3b 1d 2f 1c 3a a6 56 74 38 a3 86 06 80
       0.00222382 0.0005957948 5.825483e-05 -5.99312e-40
0000c0 7f 6a 01 80 47 1a 87 b6 36 28 c8 3a cf fb 00 80
       -1.30039e-40 -4.0263726e-06 0.0015270773 -9.0332e-41
0000d0 bb 29 a6 3a a3 ad af bb a3 fe 03 00 1c 3b d0 b7
       0.0012677232 -0.0053612753 3.66853e-40 -2.4823057e-05
0000e0 14 95 8d 3b 27 01 c7 3b 80 96 30 89 fe b8 cf 1a
       0.00432075 0.0060731354 -2.1255994e-33 8.5912064e-23
0000f0 80 f8 32 3a 8f 03 8c 3c 8b c4 11 ba e4 5c 05 80
       0.00068271905 0.01709154 -0.0005560598 -4.925e-40
000100 8f 99 f1 bb 84 40 4a bc af 01 1c a7 6d 55 3c ba
       -0.007373042 -0.012344483 -2.1650262e-15 -0.00071843603
000110 12 ce 81 9a b4 38 98 ba 6c 22 8e 39 d3 20 10 3c
       -5.3686074e-23 -0.0011613579 0.00027109997 0.008796888
000120 c3 81 80 ba fc 5e 9e b8 31 94 71 11 71 19 00 00
       -0.0009804297 -7.551719e-05 1.9057213e-28 9.127e-42
000130 25 14 9f 3b 15 a8 2b bb c8 51 3c 25 86 fe 41 bb
       0.0048546963 -0.0026192714 1.6334109e-16 -0.002960117
000140 21 c9 03 00 ba 83 d4 36 3d 38 00 80 3e 1b 4b 1a
       3.47658e-40 6.3334273e-06 -2.0174e-41 4.2001422e-23
000150 a9 db fd 92 e4 52 22 39 83 3c c6 3b 3c 66 7c b9
       -1.6020695e-27 0.00015480403 0.006049694 -0.00024070678
000160 6f 7b 11 39 83 5f 34 bc 7b b2 07 00 20 0e 7b a7
       0.0001387426 -0.0110091 7.06875e-40 -3.4840905e-15
000170 a5 2b 04 00 07 e3 02 00 21 40 92 38 bb 6e 97 3c
       3.82999e-40 2.65113e-40 6.9737674e-05 0.018485418
000180 5c ce 4b 38 20 55 bc ba 72 29 ca b7 30 7e 06 00
       4.859116e-05 -0.0014368631 -2.4099576e-05 5.9628e-40
000190 2a 89 9d 3b 5d 6f ed bc 5d 6e de bc 2d dc 63 8c
       0.004807611 -0.028983766 -0.027152235 -1.7553701e-31
0001a0 34 97 2c 3b 21 5a 4b 3b a4 57 bb 35 4f bd eb 90
       0.0026335241 0.0031029063 1.3958092e-06 -9.298283e-29
0001b0 de b7 82 b8 6b 19 04 00 54 23 a8 0d b8 12 89 3a
       -6.233131e-05 3.7646e-40 1.0362304e-30 0.0010457849
0001c0 0d 4f a4 b2 b7 af bf ba f7 8f ca 3a 78 fb 12 3c
       -1.9128061e-08 -0.0014624511 0.0015454282 0.008971088
0001d0 b0 1e e9 aa f8 fd 21 3b 45 ba 9a ba b7 f7 14 3a
       -4.1410408e-13 0.0024718028 -0.001180478 0.00056826643
0001e0 30 4f c7 89 64 aa 3d b8 97 45 55 3c ec 2f e2 1a
       -4.7981975e-33 -4.52198e-05 0.01301708 9.354883e-23
0001f0 20 1e c4 36 ca 85 bb 3c ba 2d fb b9 cc 37 3a 16
       5.844762e-06 0.022890944 -0.0004790852 1.5042567e-25
000200 20 8b 07 80 3b ab 07 00 1a 28 05 00 9e ca 00 00
       -6.92757e-40 7.04274e-40 4.73563e-40 7.2685e-41
000210 e8 97 02 00 ea 80 04 80 b6 d8 00 00 c0 6f 01 00
       2.38165e-40 -4.13588e-40 7.7741e-41 1.31924e-40
000220 bb 5a 03 80 6a 14 02 00 5b af 00 00 2e f2 02 00
       -3.08054e-40 1.90994e-40 6.2906e-41 2.70549e-40
000230 1d c5 1e 00 39 b6 06 80 b8 a2 06 00 07 d0 03 80
       2.825776e-39 -6.16382e-40 6.09385e-40 -3.50133e-40
000240 48 a9 04 00 a1 fd 06 80 a8 6d 03 00 1d b8 00 00
       4.28069e-40 -6.41998e-40 3.14844e-40 6.6047e-41
000250 94 17 27 81 50 55 00 00 65 13 06 00 4c 13 03 80
       -3.0689972e-38 3.0604e-41 5.5797e-40 -2.82429e-40
000260 27 bf 01 00 28 70 00 80 70 79 98 80 36 11 03 00
       1.60408e-40 -4.0234e-41 -1.4002559e-38 2.8168e-40
000270 2d 59 02 00 75 d0 01 00 c0 05 1c 80 9e e1 01 00
       2.15661e-40 1.66616e-40 -2.573457e-39 1.72772e-40
000280 71 d3 03 00 6f ab 05 00 02 7b 02 00 f2 a8 04 00
       3.51357e-40 5.20676e-40 2.27798e-40 4.27948e-40
000290 34 7e 03 80 83 81 00 80 77 e7 3e 80 00 2b 03 80
       -3.2078e-40 -4.646e-41 -5.776835e-39 -2.90932e-40
0002a0 64 da 03 80 97 f6 06 00 6a a9 02 80 fb 86 01 80
       -3.5385e-40 6.39473e-40 -2.44445e-40 -1.40257e-40
0002b0 3b 45 01 80 98 ec 03 00 0b d5 03 80 0a c3 04 00
       -1.16671e-40 3.6038e-40 -3.51932e-40 4.37309e-40
0002c0 f7 6e 10 00 71 ba 06 80 30 80 02 00 70 f3 04 80
       1.509175e-39 -6.17896e-40 2.29656e-40 -4.54671e-40
0002d0 b3 35 06 80 a6 7f 03 80 0e ce 06 80 a2 64 03 80
       -5.70277e-40 -3.21298e-40 -6.24931e-40 -3.11607e-40
0002e0 d7 30 02 00 6d a7 05 80 50 4a 19 00 21 72 04 80
       2.01191e-40 -5.19239e-40 2.322546e-39 -4.08284e-40
0002f0 01 1f 07 80 cd 20 02 80 8e 3f 02 00 24 65 07 80
       -6.5397e-40 -1.95438e-40 2.0647e-40 -6.79131e-40
000300 16 31 05 80 62 61 02 80 32 17 03 00 7f 25 07 80
       -4.76786e-40 -2.18605e-40 2.83827e-40 -6.563e-40
000310 96 82 06 00 0d 88 05 80 a6 72 03 00 d3 f8 00 80
       5.97858e-40 -5.07983e-40 3.16635e-40 -8.9261e-41
000320 20 c1 05 00 c6 30 06 80 8e 11 02 80 5e f5 02 80
       5.28458e-40 -5.6851e-40 -1.89968e-40 -2.71692e-40
000330 ea de 03 80 3c 57 01 80 17 47 01 80 e6 4c 05 00
       -3.55473e-40 -1.23129e-40 -1.17338e-40 4.86763e-40
000340 41 39 05 80 b4 0f 04 00 b3 90 01 80 d0 b8 00 80
       -4.79716e-40 3.72975e-40 -1.43744e-40 -6.6298e-41
000350 a9 b8 05 00 fc 50 04 80 1c b0 06 00 57 4a 00 00
       5.25421e-40 -3.96394e-40 6.14189e-40 2.6668e-41
000360 df 8d 02 00 45 63 01 00 a1 3d 00 80 ec 45 00 80
       2.34565e-40 1.27447e-40 -2.2108e-41 -2.5083e-41
000370 4d 47 00 00 f0 ff 03 00 86 68 00 00 81 c0 03 00
       2.5578e-41 3.6732e-40 3.7496e-41 3.44564e-40
000380 6a f1 01 80 14 3a 03 80 3f b1 06 00 81 44 04 00
       -1.78439e-40 -2.96341e-40 6.14597e-40 3.91917e-40
000390 9a 8a ef 80 26 fd 05 80 ad 15 00 00 70 71 06 00
       -2.1998404e-38 -5.4999e-40 7.776e-42 5.91707e-40
0003a0 34 6d 03 00 03 f6 02 80 f4 df 06 00 ab cd 05 80
       3.14681e-40 -2.71923e-40 6.31352e-40 -5.32957e-40
0003b0 cf 64 00 80 65 18 01 00 c9 f9 03 00 25 55 01 80
       -3.6163e-41 1.00587e-40 3.65113e-40 -1.2238e-40
0003c0 76 2a 01 00 a1 ea 05 80 a4 ac 03 80 f1 cc 69 08
       1.07068e-40 -5.43346e-40 -3.37438e-40 7.0356795e-34
0003d0 54 91 03 00 99 26 00 80 8a c9 03 00 d7 5d 05 00
       3.2764e-40 -1.3846e-41 3.47805e-40 4.92841e-40
0003e0 c8 b2 02 00 65 c5 03 00 a0 44 00 80 b4 c2 04 80
       2.47806e-40 3.46318e-40 -2.4618e-41 -4.37188e-40
0003f0 af a7 01 00 bb 56 06 80 cd 92 02 00 63 d0 00 80
       1.51989e-40 -5.82126e-40 2.36333e-40 -7.4755e-41

decoder_lin.2.bias f4 [288]
000000 aa e2 f1 3a 59 34 84 af 0f f4 8b bc 15 11 ea bb
       0.0018454392 -2.4047855e-10 -0.01708415 -0.0071431496
000010 69 32 77 bc d7 aa 1d bc e9 49 44 bc 18 6c 8c bc
       -0.015087702 -0.009623251 -0.011980512 -0.017141387
000020 10 7a c7 3a 86 5e 5e bc 38 ae 9a b9 93 42 99 bc
       0.0015218873 -0.013572341 -0.00029502972 -0.018708503
000030 63 92 a8 bb 31 d5 cf ba d2 49 52 bb 33 dc 8e bb
       -0.005144404 -0.0015856383 -0.0032087457 -0.004359746
000040 1c 03 15 bb a1 d1 14 ba 55 82 76 bc 50 cd 1b b8
       -0.002273745 -0.0005676989 -0.015045722 -3.7146092e-05
000050 91 f8 40 ba 59 c3 d8 3a 25 74 62 9b 09 fa e3 bb
       -0.0007361258 0.001653771 -1.873181e-22 -0.0069572967
000060 ba db 33 bb 09 90 90 bc b4 a4 f8 bb 57 7a 8c a8
       -0.00274442 -0.017646806 -0.0075879935 -1.5596179e-14
000070 21 7a d0 b9 78 22 50 bc 41 62 92 97 82 4a 28 3b
       -0.00039763845 -0.0127035305 -9.459832e-25 0.0025679176
000080 23 d7 a0 ba b2 fa 12 3b ca 62 ac 3a 2d 29 3e 3c
       -0.0012271147 0.0022427258 0.0013152 0.011606497
000090 c0 1e c1 b5 06 77 b8 38 de d8 2c 9e 3c 8c 01 b4
       -1.438857e-06 8.7959736e-05 -9.150451e-21 -1.2065078e-07
0000a0 ab c2 28 b6 0a 93 e8 bb c3 53 d1 bc 06 a3 37 b9
       -2.5147262e-06 -0.0070976065 -0.025552636 -0.00017512971
0000b0 d8 f1 30 b9 e7 89 83 bb d8 e7 9a 99 ca 1a 73 39
       -0.00016874762 -0.004014242 -1.6016868e-23 0.00023184266
0000c0 be 1d b8 39 a0 d3 b6 3b f6 78 70 3b 28 11 9c 3b
       0.00035117375 0.005579427 0.0036693192 0.0047627874
0000d0 df 04 00 bc 90 68 aa a3 c4 8d 73 3b dc b1 1d bb
       -0.007813661 -1.8475721e-17 0.0037163356 -0.0024062311
0000e0 02 22 8b bb 9c 5d 31 3b 29 9c b8 b9 df 85 b5 b2
       -0.0042459974 0.0027063852 -0.00035211563 -2.113205e-08
0000f0 2e 0a 1b ba 52 21 8e bb 61 c8 d4 bb 9a a0 1c a9
       -0.00059142977 -0.004337468 -0.0064936136 -3.4778258e-14
000100 3f f6 96 39 70 5b e2 bb f6 f6 dc 3b ec 5a b5 bb
       0.00028793697 -0.006907873 0.006743307 -0.0055345204
000110 48 bb eb 3b db ea 09 bc 11 c4 e9 3b 33 c5 b8 bb
       0.0071939565 -0.00841781 0.0071339686 -0.0056387424
000120 b7 5e 98 a7 1a e8 5c 3b 6e 46 7f 39 9e 22 4e bb
       -4.2291165e-15 0.003370768 0.00024344932 -0.003145374
000130 9e 2f ad b9 7e 2a 70 3b 5d a9 c6 bb 8f 1a b6 a4
       -0.0003303261 0.003664642 -0.00606267 -7.897491e-17
000140 7c 0f 2b 3c 36 b0 20 ba f4 15 a8 3a 21 58 9c 3c
       0.0104407035 -0.0006129773 0.0012823925 0.019084992
000150 09 a3 8f bb 1c cb 21 3c 9d 7d 6d b7 d0 87 06 a8
       -0.004383449 0.009875085 -1.4155547e-05 -7.467944e-15
000160 4d 72 83 b2 2d 12 ce bb c6 42 9a bc 9f 37 a2 bb
       -1.5302385e-08 -0.006288788 -0.018830668 -0.004950478
000170 d8 4e 9d bb ed 02 cc bc dc bd 16 bb 0b de b9 bc
       -0.0048006587 -0.024903739 -0.0023001349 -0.022688886
000180 01 25 27 bc e3 29 07 3b 0c c1 c2 b9 e6 83 49 ba
       -0.0102016935 0.0020624332 -0.00037146395 -0.0007687196
000190 92 80 41 a5 cd 06 35 af 0f e0 87 bc ba 3e 4d bc
       -1.6783643e-16 -1.646427e-10 -0.016586332 -0.012527162
0001a0 19 1c 2a bc f5 0b 39 bb 9b 93 c2 b9 c0 f5 00 bd
       -0.010382676 -0.0028235887 -0.00037112538 -0.031484365
0001b0 17 a4 63 bb fb 07 1e 3c 98 cc c1 ba 7c b1 bf ba
       -0.0034735256 0.009645457 -0.0014785705 -0.0014625038
0001c0 ba 94 87 bc 37 26 26 bc ec e8 d7 3b 36 5f d6 3b
       -0.01655041 -0.010140947 0.0065890457 0.0065421117
0001d0 c3 6a 6a bb 83 1b e0 bb f2 fc 1c 3b d7 65 74 3b
       -0.0035769201 -0.006839217 0.0023954478 0.0037292147
0001e0 b5 90 f3 b6 c8 b2 9b b2 46 73 8f ba c1 5a 99 bb
       -7.2588105e-06 -1.8125675e-08 -0.0010944388 -0.004680008
0001f0 ec 5e a7 bb 71 1d 31 bb 38 97 86 b9 6d 8a 69 a0
       -0.005107751 -0.0027025605 -0.00025671138 -1.9781669e-19
000200 a4 2e f8 af 4d c6 ef bb cd 9a 97 bb 34 cd 87 bc
       -4.5144077e-10 -0.0073173405 -0.004626608 -0.01657734
000210 cb 7c 0b 99 88 f9 2a 3b cb ba 3b bb 0d d1 19 bb
       -7.211333e-24 0.0026088674 -0.0028645273 -0.0023470551
000220 8b 34 63 bc 48 cf 80 b3 96 f3 50 39 28 47 69 bb
       -0.013867508 -5.998169e-08 0.00019927169 -0.003559539
000230 a8 69 8e b3 e1 df a9 91 78 1c 43 bc 58 b7 46 3b
       -6.631609e-08 -2.6801475e-28 -0.011908643 0.0030321684
000240 17 c1 63 b7 ab d6 12 bc fa 42 c7 3a ab 6e 60 bb
       -1.3575212e-05 -0.008962314 0.0015202456 -0.003424565
000250 7a 4a c1 bb 44 3d 7d ba 67 00 c1 bb 37 6a 1e 3b
       -0.005898771 -0.00096603134 -0.0058899405 0.0024172196
000260 f7 52 35 3b 47 36 b3 ba bd 7e 9a b9 81 81 7a b8
       0.002766786 -0.0013672792 -0.00029467596 -5.9725255e-05
000270 74 06 97 94 f6 fc 8b 3b 38 62 16 bc 02 a4 08 b8
       -1.5249649e-26 0.0042720987 -0.009178691 -3.257767e-05
000280 d4 d1 96 ba 90 7a 29 37 50 5c 2f 3c d2 cc 79 3a
       -0.0011506625 1.0101721e-05 0.010703161 0.0009529117
000290 12 76 2d ba 1c 36 dc bb 64 bb 3a bc 70 aa f1 ba
       -0.000661702 -0.0067203175 -0.0113972165 -0.0018437635
0002a0 53 69 a2 3b 80 f2 d3 ba 0c 50 4d a0 d2 e4 71 bb
       0.0049564033 -0.0016170293 -1.7390661e-19 -0.003691007
0002b0 6f fb 63 bb c7 0c 22 ab 7d bf a1 b5 3f 42 23 ab
       -0.0034787317 -5.7571694e-13 -1.2051165e-06 -5.800117e-13
0002c0 2e 14 cf b9 46 ed 38 bb 05 df ab bb 84 2c fa bc
       -0.00039497152 -0.0028217598 -0.005245092 -0.030538805
0002d0 f5 56 46 a3 3d 9e e6 ba b2 79 66 b3 24 94 29 bb
       -1.0752015e-17 -0.0017594766 -5.366173e-08 -0.0025875652
0002e0 0d b5 26 bb 1e 12 d1 b4 2a 54 c8 bb fb fa 36 bc
       -0.0025437505 -3.8942466e-07 -0.0061135488 -0.011168237
0002f0 69 5b ff ba 3c a0 2a 3b 10 ae dd b9 34 14 f3 3b
       -0.0019482198 0.0026035449 -0.0004228209 0.00741818
000300 8d 9c 98 3a c3 08 c7 3b b2 db 10 ba 67 83 19 a0
       0.0011643335 0.0060740425 -0.0005525901 -1.3003081e-19
000310 17 0f 22 3c 03 ec 70 98 af cf 9f b8 44 23 4d b8
       0.009891293 -3.1138428e-24 -7.620395e-05 -4.8908652e-05
000320 9d ab 13 a0 b0 f0 b6 bb 7e c4 f7 bc 25 9c 47 bc
       -1.2508166e-19 -0.0055828914 -0.030245062 -0.012183224
000330 e1 2c 77 3b 37 22 d0 ba 4e 68 ec 3b 26 2c 1c bc
       0.003771596 -0.0015879337 0.0072145825 -0.00953201
000340 60 e3 f7 b2 f3 d0 22 bb 48 4e 34 bb 04 7f fd ba
       -2.8857983e-08 -0.0024843782 -0.002751248 -0.0019340222
000350 fa 58 4b bb 3c 0e 7b bc c0 98 b1 bb 8e 58 2c bc
       -0.0031028376 -0.015323218 -0.0054198205 -0.01051916
000360 d0 31 31 bc fe 5f 04 bb 0b d5 1b b8 4e ec ad b8
       -0.010815099 -0.0020198817 -3.715329e-05 -8.293298e-05
000370 2d 50 ae bc 26 c0 6f 3b 6b 28 fe 3b ce 96 50 3b
       -0.021278465 0.0036583035 0.007756283 0.0031828168
000380 ba 69 95 bc e7 1b 33 bb b9 66 a6 bb a3 04 07 a6
       -0.01823889 -0.0027329864 -0.0050781635 -4.684382e-16
000390 13 81 73 bc a9 b7 3c bb 89 d8 d7 bb d7 8d 67 3a
       -0.014862317 -0.0028795993 -0.0065870923 0.00088330865
0003a0 a5 07 c5 ba 34 6d 77 3a f6 53 5b 3b c7 10 54 97
       -0.0015032185 0.0009438575 0.0033466793 -6.852207e-25
0003b0 9f 37 f5 3b ef 5a dd 3b cb 0f 0a b1 f6 0e 17 aa
       0.007483437 0.006755225 -2.009062e-09 -1.3416685e-13
0003c0 5c 74 c6 3b 89 00 a1 3a 4c 08 9e 3a 20 28 f2 b7
       0.0060563516 0.0012283485 0.0012056916 -2.8867333e-05
0003d0 b7 3a 06 93 38 cf 83 b7 99 d9 14 bb 19 71 dc bb
       -1.6942126e-27 -1.571291e-05 -0.0022712706 -0.0067273495
0003e0 f9 8e 0e ac 57 86 91 bb 55 05 d1 ba 45 da e4 ba
       -2.025878e-12 -0.0044410634 -0.0015947024 -0.0017460069
0003f0 6c b5 bf ba d7 70 27 bb 11 d7 50 3a 10 61 72 bb
       -0.0014626211 -0.0025549436 0.00079666177 -0.0036984123

decoder_conv.0.weight f4 [32, 16, 3, 3]
000000 b7 ef 53 bc 87 9a aa 3c 91 74 7f bd 00 ec be 3c
       -0.01293557 0.020825638 -0.062367026 0.023305893
000010 76 b7 77 3c 56 62 4e bb 83 3d 62 bb 5b a5 7f bc
       0.015119424 -0.0031491718 -0.0034521527 -0.015603389
000020 15 5d 99 ba 52 49 e2 3b 13 b2 04 bd 68 73 a9 bc
       -0.0011700714 0.006905713 -0.032396387 -0.020684913
000030 82 59 20 bc 74 89 32 bc 3f 8d 75 3c db 77 f1 bc
       -0.009786965 -0.010897029 0.014987289 -0.029476097
000040 25 f1 9f bc ae bf 69 bd f0 01 27 bc ee 47 7a 3c
       -0.019524166 -0.057067566 -0.010193333 0.015275938
000050 60 f9 56 3c 0c ca a5 bc dc bc f5 bc 5a bd 37 3c
       0.013120979 -0.020237945 -0.029997282 0.0112145785
000060 03 56 34 ba 2a e8 a3 bc b2 60 c6 ba 5e 29 b3 3b
       -0.0006879272 -0.020008165 -0.0015135019 0.005467578
000070 52 6b bf bb c4 98 81 bc 0b 3c 24 bc 2e e1 81 bb
       -0.005841651 -0.015819915 -0.010024081 -0.003963611
000080 68 d9 a8 b9 76 19 93 ba f9 88 42 bd ba 8f 56 3a
       -0.00032205437 -0.0011222798 -0.04749391 0.0008184869
000090 5b 4a 0b bb 4e fc e3 bc 78 0a 99 bc f5 c2 f4 bb
       -0.0021254036 -0.02783027 -0.01868175 -0.0074695298
0000a0 a2 a4 63 bc b7 d4 09 bb 61 65 db bc 2d b1 2e bc
       -0.013894232 -0.002103133 -0.02678174 -0.010662359
0000b0 d7 09 fd bb 28 ec c3 bb b8 20 ce 3a 81 46 9d 3c
       -0.0077221203 -0.0059790798 0.0015726304 0.019198658
0000c0 2d c4 b8 ba c2 40 0d 3b b3 c5 51 3a d8 50 f6 3c
       -0.0014096551 0.0021553491 0.0008002177 0.030067846
0000d0 54 86 f5 3c e5 b2 c0 bb a9 73 d6 3b 88 23 ff bb
       0.02997128 -0.005880701 0.0065445495 -0.007786218
0000e0 54 c5 a5 3c da cb 85 3b 6c 4a 38 bd e7 f5 40 3c
       0.020235695 0.004083139 -0.04499285 0.011777378
0000f0 fb 47 70 3c 2a c3 59 3b 9d 44 2b 3d 42 a0 38 3b
       0.014665599 0.00332279 0.04181348 0.0028171693
000100 ef 4a b0 3c e1 73 a7 3b b8 65 ae 3c e4 bd 86 3c
       0.021520106 0.0051102494 0.021288738 0.016447969
000110 4a af 0e 3d b9 6c be 3b 0b 6a c7 3b aa e1 0d 3c
       0.034835137 0.0058113006 0.0060856394 0.00865976
000120 9c c4 8c 3c 72 04 28 3d 9b cb 9e 3c 26 49 f4 3a
       0.017183594 0.041019864 0.019384196 0.0018637523
000130 98 59 33 3c bf 80 cd 3c 09 a8 a1 3c 00 52 c4 bc
       0.010946654 0.025085805 0.019733446 -0.023964882
000140 8f ed d9 bc ef d2 13 3c 8e 57 c3 3c 2d ec 82 3b
       -0.026602535 0.009022458 0.02384546 0.0039954395
000150 10 12 57 bc c9 17 b5 bc d2 86 ed bc 04 98 08 bb
       -0.013126865 -0.022106068 -0.028994951 -0.0020842561
000160 e1 85 81 bb a3 9b 44 3c 21 1d 63 3c bc c5 69 bc
       -0.003952727 0.011999997 0.013861925 -0.014268335
000170 7d f9 4f 3b f3 08 4d 3c a1 dd b2 3c 4f 92 3f bb
       0.00317344 0.012514341 0.021834197 -0.0029231494
000180 22 04 3c bc 08 8b 4d bc 42 31 4a 3c 29 1f 9e 3c
       -0.011475595 -0.012545355 0.012340846 0.019301968
000190 5f df f2 3c 96 c2 d8 bb f1 64 71 3c 99 1a 3b bc
       0.029647527 -0.0066149933 0.014733539 -0.011419916
0001a0 7c f0 92 3a 5a f4 09 3d b6 3f 61 3d 47 d4 66 bc
       0.0011210586 0.033680297 0.0549924 -0.014088697
0001b0 2b 67 f8 3b dc 71 31 bc 06 b5 c4 3a 52 85 c0 3b
       0.007580658 -0.010830369 0.0015007562 0.005875268
0001c0 0e 0c 53 bd fc 78 cc 3c ee c0 0c 3c 4d a7 23 bc
       -0.051525168 0.024960034 0.00859092 -0.009988618
0001d0 32 65 92 bb 61 61 2c bc 2d 20 00 3d 5d b6 4c 3c
       -0.00446763 -0.010521264 0.031280685 0.012494651
0001e0 cb 8a 1b 3c 09 ba 1d ba 64 a4 20 bd 0a 04 90 bc
       0.00949354 -0.0006016796 -0.039219275 -0.017580051
0001f0 a1 90 97 ba c6 79 1f bc 96 b6 80 39 54 79 cb bc
       -0.0011563489 -0.009733623 0.000245501 -0.024838127
000200 95 c8 2c 3c 6b 82 78 b9 bc e3 73 3c 63 6c 89 bc
       0.010545869 -0.00023699708 0.014885839 -0.016775316
000210 a6 8a 6e bc ec 4a 0b 3d 16 73 06 3d 60 67 de bb
       -0.014559424 0.034006998 0.0328246 -0.0067872256
000220 db d5 fa bc cc b7 6a bc 79 ad aa 3b bd bf 66 3c
       -0.030619552 -0.014326047 0.005208668 0.0140838
000230 94 b3 e1 3c ed 32 18 3c 65 36 ed ba e6 55 30 bb
       0.02755145 0.009289485 -0.0018097876 -0.0026906668
000240 48 e9 81 ba 3f 63 0d 3d dc 77 c5 ba 65 06 64 3b
       -0.0009911442 0.034518477 -0.0015065628 0.003479385
000250 6b 95 3e 3d d0 85 bd 3c 4e 81 00 bb 91 9f a2 bc
       0.046529215 0.023135096 -0.0019608322 -0.019851478
000260 a4 36 f4 bb 87 c1 ef bc bd ff 14 bd 6d f6 0e bc
       -0.0074528027 -0.029267086 -0.036376704 -0.008725745
000270 54 81 37 bb f5 b5 33 bd 0a a3 0e bc ce 8f df b9
       -0.002800067 -0.0438747 -0.008705864 -0.00042641017
000280 52 95 b7 bc e6 21 64 3c f0 bb 77 3c 59 91 56 bc
       -0.022410069 0.013924098 0.015120491 -0.013096177
000290 7e 9d 4e bc 0d bb 35 bc 08 2e 93 3b 2c 15 8d bc
       -0.012610791 -0.01109196 0.0044915713 -0.01722201
0002a0 86 e6 24 3b c1 cb cc bb f1 78 75 bb 9e 93 1c 3b
       0.0025161817 -0.0062498753 -0.003745612 0.0023891698
0002b0 e8 57 4d bd ff 1a 40 3c 9a 16 12 ba 42 e5 26 bd
       -0.050132662 0.011725186 -0.0005572826 -0.04074598
0002c0 21 da 1a 3c 9b 50 77 bb cc fa 72 b8 ef 7d b2 3b
       0.00945142 -0.0037737254 -5.793087e-05 0.0054471414
0002d0 e9 25 8b bc 3a 46 c0 bc ee 0e ce bc 4d d9 a7 bb
       -0.01698585 -0.023470987 -0.025153603 -0.00512234
0002e0 c3 22 64 bb 74 04 2b bb c0 c3 91 bc d7 c0 5f bc
       -0.0034810759 -0.0026095184 -0.017793536 -0.013656816
0002f0 3e b6 aa bc 1e b5 d8 bb c6 fa e9 3c 1f 63 52 3d
       -0.020838853 -0.0066133877 0.02856196 0.05136406
000300 15 01 67 3c 87 47 bc 3b b6 f7 49 3a 4c 88 30 3c
       0.014099379 0.0057458314 0.00077044533 0.010774683
000310 06 cd 74 bc 22 c2 88 bb e5 6e 02 bd ef 43 bb 3a
       -0.0149414595 -0.004173533 -0.03184404 0.0014287214
000320 a9 b4 9a 3c 73 26 3b bb 6e 26 e1 3c 91 0a 7d bc
       0.018884974 -0.0028556853 0.027484145 -0.015444414
000330 5a d9 58 3c 02 db 40 bb a3 26 6c 3c d2 9e 2c bb
       0.013235414 -0.0029427414 0.014413509 -0.0026339781
000340 22 52 5b 3c 72 42 c9 3b 9f 4c 2a 3c 8b 71 8d 3c
       0.013386281 0.006141954 0.010394244 0.017266056
000350 62 48 db 3c 02 99 b3 bb c6 bf 4f 3b 06 00 88 3a
       0.026767913 -0.0054808864 0.00317 0.0010375984
000360 59 50 81 bb 28 fe f5 bb 0a 8c fa bc d6 85 06 ba
       -0.0039463458 -0.0075071044 -0.030584354 -0.00051316374
000370 b9 68 3b 3c 3d 15 e9 bc 9a 01 42 bc 14 a9 bd bb
       0.011438542 -0.02845251 -0.011841202 -0.005787978
000380 3a a2 7d bc e8 45 0e bc f5 c6 92 bc c8 a0 0a 3d
       -0.015480572 -0.008683659 -0.017917136 0.03384474
000390 da c6 a1 bc 04 f7 14 bd 20 9f 99 3b cb 31 ed 3b
       -0.01974814 -0.036368385 0.0046881586 0.007238602
0003a0 8e 29 24 bb 42 e0 08 3c b0 08 d8 bc b4 80 12 3b
       -0.0025049183 0.0083542485 -0.02637133 0.0022354545
0003b0 22 39 69 bc 45 e0 08 bc 75 5a b7 bc a4 06 08 bb
       -0.014234813 -0.008354251 -0.022382 -0.0020755911
0003c0 0b 15 84 ba 15 9f c4 ba 17 02 01 bb 14 93 45 bc
       -0.0010077072 -0.0015001023 -0.0019685084 -0.012058992
0003d0 b9 a3 77 bd ca a9 09 39 0f 40 2e bd c7 f4 fa bc
       -0.060458872 0.0001312859 -0.04254156 -0.030634297
0003e0 61 d5 8a bc 0e 40 28 3c 2d 94 05 bd 6a 7b 29 3c
       -0.01694745 0.010269178 -0.032612015 0.010344366
0003f0 2c b7 33 bc 1f 72 ad bb dc 4f f4 bc 9c 94 c3 bc
       -0.010968965 -0.0052931453 -0.029823236 -0.023874573

decoder_conv.0.bias f4 [16]
000000 68 f9 07 b9 e8 0d 9a 38 78 23 9b b7 a4 31 37 39
       -0.00012967514 7.3458825e-05 -1.8493956e-05 0.00017470733
000010 90 19 95 37 ab 27 f0 b9 5e c1 1e 38 2c 10 17 39
       1.7774088e-05 -0.00045805922 3.7850223e-05 0.00014406507
000020 65 44 21 39 62 93 54 b8 7e aa df 36 7b 1e 39 39
       0.00015379635 -5.0682e-05 6.665766e-06 0.0001765433
000030 e7 63 74 b7 f8 17 98 b7 17 42 23 38 5c 91 aa b8
       -1.4566794e-05 -1.8130973e-05 3.892378e-05 -8.133307e-05

decoder_conv.1.weight f4 [16]
000000 ec 7d 55 3e 4b 32 5e 3e a2 f5 2c 3e 36 14 4c 3e
       0.20848817 0.21698873 0.16890576 0.19929585
000010 dc 45 41 3e 3c b3 91 3e a2 43 36 3e 2c f7 3a 3e
       0.18874305 0.28457057 0.17799237 0.18258351
000020 f7 d2 6b 3e 28 dc 46 3e 80 05 46 3e 9d f9 46 3e
       0.23029695 0.1941992 0.19338036 0.19431157
000030 99 f8 28 3e 4c 1f 27 3e 21 8e 60 3e 2a 61 3f 3e
       0.16501082 0.16320533 0.21929218 0.18689409

decoder_conv.1.bias f4 [16]
000000 5c 91 5d bc 36 d9 cf bc 46 ee 28 3c 2a 27 bf 3b
       -0.013523426 -0.025372129 0.010310715 0.005833526
000010 3f 24 e3 3a 62 80 ef bc c1 4f 46 bb cf 1e 98 bc
       0.0017329528 -0.029236022 -0.003025994 -0.018569378
000020 35 30 31 bc ca 88 1b bc e9 83 8c bc ef 7d df 3c
       -0.010814716 -0.009493062 -0.017152743 0.02728173
000030 b1 b0 5f 3b 3f d7 e4 3b 0f 04 d4 bc 1f c9 d6 3c
       0.0034132416 0.006983667 -0.025880842 0.026218949

decoder_conv.1.running_mean f4 [16]
000000 38 57 89 b9 03 bd f3 b9 32 2b b8 b9 3d bb 94 b7
       -0.0002619566 -0.00046489396 -0.00035127398 -1.7730164e-05
000010 cf d5 99 b9 62 6f 6d ba c2 ef 82 b8 62 d0 a1 3a
       -0.00029341734 -0.000905743 -6.2435414e-05 0.0012345428
000020 21 05 35 ba 3e de 41 b9 ea d0 1a ba f8 0f 02 3a
       -0.00069053663 -0.00018488706 -0.00059057644 0.0004961486
000030 9a 37 88 b9 65 a3 5c b9 88 f1 3b ba 28 d1 e7 39
       -0.00025981368 -0.00021041704 -0.0007169475 0.00044215587

decoder_conv.1.running_var f4 [16]
000000 9d 76 60 35 6a 31 48 35 53 7b d0 34 46 5a 31 35
       8.361911e-07 7.4577713e-07 3.883275e-07 6.6069003e-07
000010 8d 66 e1 34 06 b9 dd 35 5d 3d 23 35 19 ea 99 35
       4.198413e-07 1.6519632e-06 6.081153e-07 1.146752e-06
000020 c5 36 9c 35 95 a9 2d 35 74 c9 34 35 12 73 99 35
       1.1638846e-06 6.4694296e-07 6.734838e-07 1.1432878e-06
000030 5a 11 40 35 af 46 c7 34 cb 3d 74 35 a6 16 a5 35
       7.1550824e-07 3.7118068e-07 9.0987004e-07 1.230005e-06

decoder_conv.3.weight f4 [16, 8, 3, 3]
000000 cc 28 19 3c eb 2a 9a 3c 36 5e aa 3b 2f 4b 8e 3c
       0.009348106 0.018819293 0.005199219 0.017369835
000010 0a 69 bc 3c ab fa cd 39 1d f8 dd 3c 98 f2 09 3d
       0.022999305 0.0003928741 0.027095849 0.03367862
000020 54 92 ab 3b 67 45 36 bc 13 fe 1c bd e4 5a 19 bc
       0.0052359495 -0.011124945 -0.03832824 -0.009360049
000030 24 bd 98 bc 53 66 3f bd 8d ce c2 bc c9 12 61 bc
       -0.018644877 -0.046728443 -0.023780132 -0.013737389
000040 cd 94 00 bd 0b f9 4e bc 4b 92 ca bb 04 08 40 3d
       -0.031391907 -0.012632619 -0.0061819903 0.046882644
000050 67 ce df 3c bb 67 fc bb d4 82 8f 3d 77 cd 08 3d
       0.0273201 -0.0077027953 0.07007375 0.03339907
000060 b9 c2 b4 bb 8d 80 80 3d 6b 02 ea 3c 0e e3 49 bc
       -0.005516377 0.06274519 0.028565606 -0.0123222
000070 dc f6 ae bb 2c 76 01 39 62 46 02 bd f8 be 12 bd
       -0.0053394865 0.00012346421 -0.031805404 -0.035826653
000080 22 3d 2b bc 5b b7 85 bc a4 3d 8f bc 54 9b fe 39
       -0.010451587 -0.016322782 -0.017485447 0.00048562384
000090 30 e3 bd bc 63 f9 90 bc 4b 04 a4 ba f3 47 70 bd
       -0.02317962 -0.017697042 -0.0012513486 -0.058662366
0000a0 5f 5a b3 bc 4b 4a 17 3c 32 12 0b bd cf 0a dc bc
       -0.021893678 0.009234021 -0.0339529 -0.026860623
0000b0 a8 1b 8d 3a 2f 61 24 bd 22 a7 80 bc 01 03 19 bb
       0.0010765688 -0.040131744 -0.015704695 -0.0023347738
0000c0 5e 56 94 bd cb d9 99 bc f0 cf 7d 3c d9 93 45 bd
       -0.07243036 -0.01878061 0.015491471 -0.0482367
0000d0 66 97 a2 bc 66 b9 f3 3b 82 6c 11 bc 3f a5 05 bd
       -0.019847583 0.0074378727 -0.008875968 -0.032628294
0000e0 d7 60 b5 bc 5d b7 04 bc dc 99 26 bd ec a0 47 bc
       -0.022140903 -0.008100358 -0.040674075 -0.012184363
0000f0 3d d7 31 3c 5e 87 c3 bb 6f 10 1e 3c 97 50 a5 bb
       0.010854539 -0.0059670648 0.009647473 -0.0050450074
000100 2a 91 8f bc 1c 97 90 bc 3a 6d 04 bb 51 36 69 bd
       -0.017525274 -0.01765018 -0.0020206706 -0.056936566
000110 57 46 58 bc ff 53 8c 3a ef af ec bc 23 c1 8b bb
       -0.013200364 0.0010706185 -0.028892485 -0.004264967
000120 5f 44 ad 3b d3 6b 0b bb 1b 7a 72 bc cc 5f 48 3d
       0.0052876915 -0.0021273985 -0.01479962 0.048919484
000130 9a 65 7a 3c 06 7f cc bc f3 b7 78 3d 0a 3c 0a 3d
       0.015283013 -0.024962913 0.060722303 0.033748664
000140 1d 85 9f bc d0 e6 c3 bc a4 05 18 bb f5 6a 5e 3c
       -0.019472653 -0.02391377 -0.0023196721 0.013575305
000150 eb c1 ff bc b1 e4 3f bc ec 7f ad 3c e7 0e 42 bd
       -0.031220397 -0.011712239 0.021179162 -0.047377493
000160 1c 6d ce bc 74 17 27 3c 86 39 14 3c c9 e9 6e bb
       -0.025198512 0.010198463 0.009046918 -0.0036455265
000170 41 2f 1f bd da e0 03 3c a4 38 00 3c 0a 40 5c bd
       -0.038863424 0.008049214 0.007826004 -0.05377201
000180 69 10 45 3c 8d 39 01 3d ec 7d 8e bc 8a ac 27 bc
       0.012027838 0.031549025 -0.017394029 -0.010234008
000190 d8 c4 d7 3c 62 b7 48 3c e0 e2 4b bd 3f d3 c5 3b
       0.02633898 0.012250753 -0.04977691 0.0060371454
0001a0 fb 39 a3 3c 87 5e 3c bd 6a 7b 76 bc 5b d2 5d 3c
       0.019925108 -0.045988586 -0.015044073 0.013538922
0001b0 df 9c 93 bc b4 9f 4e 3c e8 89 44 3c cc ac 26 bd
       -0.018019138 0.012611318 0.01199577 -0.040692136
0001c0 04 e2 99 3c b6 e5 fe 3c 6b 9b 37 bd 41 93 44 bc
       0.01878453 0.031115394 -0.044825953 -0.011997999
0001d0 70 74 8f 3c d3 ae 05 bc 4d 86 8a 3b 5e 40 15 ba
       0.017511576 -0.008159357 0.0042274357 -0.00056934904
0001e0 a1 4c 07 bd a1 ec 50 3c 10 1e 5b 3c 11 68 13 bd
       -0.033032063 0.012751729 0.013373867 -0.035987917
0001f0 61 46 12 bb 4a c3 15 3b 00 07 eb bb aa 6e 64 3b
       -0.002231978 0.0022851997 -0.0071724653 0.0034856
000200 66 3c 85 3c 39 23 2c bd 84 31 38 bd a2 90 11 3d
       0.016264152 -0.04202578 -0.044969097 0.035538323
000210 35 b7 75 bd 13 ba 87 bd af 64 13 3c 78 70 3d bc
       -0.059989173 -0.06627288 0.008996173 -0.011562459
000220 04 05 64 bc 1c 9d 07 3d 20 94 c0 bc 06 36 2a bd
       -0.013917211 0.033108816 -0.023508132 -0.041555427
000230 19 7d 26 3d 99 0c 1d bd 1c 8d 5f bd d5 0b 4d 3b
       0.040646646 -0.038342092 -0.05457793 0.003128757
000240 d2 f6 ac bc ea 20 d9 bb 3e 68 c5 bc 0a 88 f9 bc
       -0.021113787 -0.006626238 -0.024097558 -0.030460376
000250 47 28 69 ba c8 23 7a bc 2d a6 c4 bc 6a f9 b7 bc
       -0.00088942464 -0.01526732 -0.02400502 -0.022457797
000260 99 4c b6 bc 72 e7 81 bc 06 79 0b bd 05 71 00 bd
       -0.022253321 -0.015857432 -0.034050964 -0.031357784
000270 2b 28 74 bc 5b 9b 11 bd 52 2d a5 bc 8a 03 11 3c
       -0.014902155 -0.03554855 -0.020163212 0.008850941
000280 62 4e e3 bb 69 5b 3f bb ba 44 08 bc 1b 71 ca bc
       -0.006936834 -0.0029198772 -0.008317167 -0.024712136
000290 6f fd 90 3c 48 ac a9 bc ca 43 1c bd a7 ae 08 3d
       0.017698972 -0.020712033 -0.038150586 0.033369686
0002a0 9a 4f e5 bc bc d4 2c bd c1 70 86 3c 1c 59 e9 3b
       -0.027992059 -0.042195067 0.016411187 0.0071212184
0002b0 22 b9 b7 39 ec 77 52 3c 05 04 a9 bb 7c 76 e1 bc
       0.00035042415 0.012845974 -0.00515795 -0.027522318
0002c0 7e 88 e6 bb ff 0a 1a bc ca da d4 bc b0 be 34 bc
       -0.007035314 -0.009402036 -0.025983233 -0.011031792
0002d0 b0 20 18 38 8b 2e 79 bc c9 0a 55 3b 2d 04 2d bc
       3.6270067e-05 -0.015208851 0.003250765 -0.010560078
0002e0 b0 bc b1 bc 1f 80 eb 3c ce d7 31 bc 01 34 0f bc
       -0.021696419 0.028747616 -0.0108546745 -0.008740426
0002f0 0a d3 67 3c 73 c7 45 bc ff c3 d6 bc 5e 55 8d 3c
       0.014149437 -0.012071478 -0.026216505 0.01725262
000300 4d f0 a9 bc b4 41 7d bc 17 28 70 3d 9c bf 8b bb
       -0.020744467 -0.015457559 0.058631983 -0.004264785
000310 b9 e3 6d 3c ce 57 60 3d d8 8b 78 bc 23 66 29 bd
       0.014519625 0.054771237 -0.01517006 -0.04135717
000320 a6 6c d8 bc 15 e7 c5 bc 37 b4 1c bd 91 0d ae bc
       -0.026418995 -0.02415804 -0.038257804 -0.021246703
000330 73 4a 67 bc 4d c2 29 bc 62 68 9e bb 53 3e 93 3a
       -0.014116871 -0.010361266 -0.0048342207 0.0011233784
000340 29 30 19 bc bc 99 d5 bc 18 45 ed bc 18 b5 10 bd
       -0.009349861 -0.026074283 -0.02896361 -0.035328954
000350 8e 36 2c bd da 50 90 bc e8 e4 bb bc 24 aa 0c bd
       -0.042044215 -0.017616678 -0.0229363 -0.034341946
000360 f5 27 99 bc ca 18 87 bc 70 1a cb bc 3f c6 d6 bc
       -0.01869581 -0.016491313 -0.02479288 -0.026217578
000370 99 7c 3b 3c d2 9e e8 bb a3 84 26 bb f3 c5 85 3c
       0.011443281 -0.007099011 -0.0025408647 0.016329741
000380 fa fe 2f bb 23 3c 1c bb b5 8c fe bc b1 68 1a bd
       -0.0026854859 -0.0023839555 -0.031072954 -0.037697498
000390 3b 59 49 3b 77 80 19 bd 3b fa 3d bd a8 db 44 3c
       0.0030723352 -0.03747603 -0.046381216 0.012015261
0003a0 cc bc 9d bb c5 98 9e bc 5e 33 b4 bc f2 d1 cd bc
       -0.004813766 -0.019359956 -0.02199715 -0.025124524
0003b0 95 78 8d 3c d2 27 0a bd a9 db 32 bb 34 bc 64 3d
       0.017269412 -0.03372938 -0.0027291572 0.055843547
0003c0 f7 e9 c4 bc 2a 03 e7 ba 32 81 14 3d af e9 8c ba
       -0.024037344 -0.0017624844 0.036256023 -0.0010750795
0003d0 05 46 8c bc e1 27 8d bc 86 8c af bc a7 46 39 bd
       -0.017123232 -0.01723093 -0.021429311 -0.045233395
0003e0 97 c4 22 bd 44 b5 c5 bc 76 8f 2d bd 1e 46 f3 bc
       -0.039738264 -0.024134286 -0.042373143 -0.02969652
0003f0 85 1a 97 bb 58 fa 04 bd b8 a9 d4 39 5d 4a e5 bc
       -0.0046113157 -0.03246531 0.0004056224 -0.02798956

decoder_conv.3.bias f4 [8]
000000 c2 7a 11 37 00 8e 9a b7 1a f4 f1 37 ae 82 a4 b7
       8.671255e-06 -1.8424354e-05 2.8843107e-05 -1.9611176e-05
000010 fc f5 ab 36 24 fc d5 b6 45 80 ac 37 b3 b5 fe b6
       5.1248335e-06 -6.3772477e-06 2.0563728e-05 -7.5909425e-06

decoder_conv.4.weight f4 [8]
000000 b6 5c 3b 3f 38 78 14 3f 69 5c 6f 3f e7 7a 2d 3f
       0.7318834 0.5799594 0.9350038 0.6776566
000010 55 a1 26 3f 02 fa 1a 3f ca c8 40 3f e8 65 45 3f
       0.65089923 0.6053773 0.7530638 0.7710862

decoder_conv.4.bias f4 [8]
000000 b7 9e c1 3e 2b a4 df 3e 60 4c d4 3e 75 2b 19 3f
       0.37816402 0.43679938 0.4146452 0.59831935
000010 2c 65 d4 3e ed c3 be 3e 00 93 f8 3e 90 aa 0c 3f
       0.41483438 0.37258855 0.48549652 0.5494776

decoder_conv.4.running_mean f4 [8]
000000 64 ce 3e 3b 0d 97 dd ba 41 98 3e 3b 04 c8 07 bb
       0.0029114718 -0.0016905979 0.002908245 -0.0020718584
000010 bf 3a f7 38 26 c0 11 3a 11 37 6a 38 c0 bf 8b ba
       0.0001178882 0.00055599434 5.5841232e-05 -0.0010662004

decoder_conv.4.running_var f4 [8]
000000 92 d7 80 38 37 6e 40 38 69 08 8c 38 87 d5 86 38
       6.143669e-05 4.5879013e-05 6.677287e-05 6.4293905e-05
000010 76 14 42 38 b5 b9 24 38 d1 ae 5e 38 3c c1 6d 38
       4.627226e-05 3.92736e-05 5.3091735e-05 5.6685167e-05

decoder_conv.6.weight f4 [8, 1, 3, 3]
000000 18 5e 3f 3e 50 0b ab 3e 14 cb 80 3e 8b 84 99 3e
       0.18688238 0.33407068 0.25154936 0.29983935
000010 41 3b f4 3e dd 30 b6 3e 93 7a fd 3c eb ba c9 3c
       0.47701457 0.35584155 0.030942237 0.024625262
000020 61 7d 8f 3d 49 7f 7f bd 2c 3e 6d be 3a 3c ed bd
       0.07006336 -0.062377248 -0.23168248 -0.11583753
000030 f2 62 9d bd 8d 0b bf be e8 96 3f be de 33 37 be
       -0.07684888 -0.373135 -0.1870991 -0.1789088
000040 9e 1c d6 be 2f f5 83 be eb 5d 83 3e 5d f9 eb 3e
       -0.41818708 -0.25772998 0.2565759 0.46088687
000050 00 a8 2b 3e e5 4f d3 3e 1c 4a 19 3f 7a 9a d6 3d
       0.16763306 0.41271892 0.59878707 0.10478683
000060 c2 13 72 3e 02 24 8a 3e 4d 3e 97 bc 17 ac b2 bc
       0.2364035 0.26980597 -0.018462325 -0.021810574
000070 cf 32 34 be 2b 44 1a be 32 46 4b be 14 5c 22 bf
       -0.17597507 -0.15065067 -0.19850996 -0.6342175
000080 79 ea f3 be a6 e0 f1 bc b3 34 87 be 8f a6 4a be
       -0.47639826 -0.029526066 -0.26407394 -0.197901
000090 bb 26 64 bd 46 a6 7c be 90 c4 72 be f5 97 fd bd
       -0.055701 -0.24672803 -0.23707795 -0.12382499
0000a0 39 f5 c7 be 93 03 e9 be b0 73 34 bd 13 62 38 be
       -0.39054278 -0.4551054 -0.04405564 -0.18006162
0000b0 7d 3b 89 be 1f 0b 1f bd 35 2a 5c bd c5 66 80 be
       -0.26803198 -0.038828965 -0.05375119 -0.25078407
0000c0 5d 0f 20 bd 93 fb 2e be d8 dc f1 be 99 e0 c3 bd
       -0.03907715 -0.17088155 -0.47238803 -0.09564323
0000d0 97 b8 65 be 90 f4 b5 be 00 67 e2 bc 0c 65 ce bd
       -0.22433697 -0.3553815 -0.027637005 -0.10077867
0000e0 28 81 8c bd d9 c0 64 be a4 8f ec be f3 d7 8e be
       -0.06860572 -0.2233919 -0.4620334 -0.2789913
0000f0 77 c6 85 be 25 51 04 bf ef 59 a9 be 65 24 da bd
       -0.2612798 -0.51686317 -0.33076426 -0.10651473
000100 6a 77 8a be 57 1e 18 bd 16 3b 9b be 2a a4 30 bf
       -0.2704423 -0.03713831 -0.30318516 -0.69000494
000110 85 d0 70 be b6 1f 1e be f6 c3 cc be 07 e4 bc bd
       -0.23517044 -0.15441784 -0.39993256 -0.0922318
