models/decoder.onnx (onnx, 176120 bytes, 17 tensors)

decoder_lin.0.weight f4 [128, 2]
00000000: 88f3 9ca4 98b8 25a6 fc25 7f3e 793a 5abe
00000010: cdb3 65bb d8ad 343b ee77 77a3 b6e3 3521
00000020: 59be 8535 ac85 5629 70a9 b5ad d068 292d
00000030: b6f0 ae3c 257d 02be b283 b73c c93b d2bd
00000040: 09b5 7c38 4705 b734 f0a1 5b98 86f3 fd29
00000050: 7afd dfbd e6cd d0bd d32b fdb9 394e faba
00000060: c6bc 0b8c 31c8 0180 92e0 a196 899c 0996
00000070: f33a 2c33 af9b 0e34 05bc 903c e721 6b3e
00000080: 51e9 313a c450 e63b 84cd 683e 724b f03d
00000090: bb52 4d8b a8b3 ac0a 8f35 1bbd a5af 963d
000000a0: f4bb 11a9 3ca9 6028 439c 0a2c 890a 65a3
000000b0: b05f fa34 50d3 9e32 8441 2690 663c 4d90
000000c0: 9107 fabd bc87 833d bf5b 27b8 7a3b 1eb4
000000d0: d19c 279a 5746 8e9a 20d6 92ba f95d 23bb
000000e0: e028 3e19 9c22 279f 4083 70bd eb02 2b3e
000000f0: 24a7 292c f120 3aab 9db9 373c 1289 6dbd
00000100: 048d 363e 0a92 a93d 24ac 1608 1e6b bd91
00000110: 2bb7 023d ccf4 473c 0aba 1a11 5add 0e13
00000120: 921d 313b 1db1 893b 2404 c2aa 31ac 0e89
00000130: 325a 5405 e5c1 0080 4054 ef14 b3f7 2e12
00000140: ba20 5a0b 4448 878b fd4c 93b9 e038 61b9
00000150: 162b c3ba ddf7 8e3b 614d 0000 0ed4 b506
00000160: 3636 483d aa33 093e c67f 8ebb 14c3 753c
00000170: fadb 6920 9c02 91ac c3bd d33c e3dd ef3c
00000180: f66d 2201 00a8 6f81 5d08 ca0b bfb6 0400
00000190: d149 043d df17 063d 6653 5c2b 5e49 1624
000001a0: 9bc7 91bd 521d 4c3e a375 c23d 4820 2c3d
000001b0: c02c b5a8 46a9 bf21 df37 33b8 62da 113b
000001c0: ea11 3c37 7e29 b4b9 494a 0400 223e ab98
000001d0: 444f e705 2944 2706 9eb1 06af 467a 9e2f
000001e0: bf32 35b9 5101 063b 5ba7 893d 537a 53be
000001f0: 58f7 0aba 23b3 8cba 3e98 0680 e443 9e0b
00000200: 55b2 c5ba 9dd7 32bb 79f6 2abe 6e7c 6ebe
00000210: e1af 2eaa 4f10 fca0 2e70 0dbe bba6 aa3d
00000220: e40e b726 bc82 22a8 36b1 ce3c 1cca 3a3c
00000230: 0a14 6e3b 06c1 a63b a6fa 4a3c 071f 5dbd
00000240: c015 d8bb d0ec 2bbc 46f1 99b9 5755 8c37
00000250: 8656 2e91 0586 3a91 fba7 ba91 16b5 0400
00000260: 8d90 cb3c e769 e2bd 5b29 13be d84c 8ebd
00000270: b97c dbb4 f2f2 6c34 b795 1b3d 8c87 793c
00000280: 19f5 3c22 29d6 a51e 51fe 41bd 2719 063d
00000290: 5129 0100 5c67 0200 81c8 9518 08fc 0180
000002a0: 0d83 6a82 662a 6687 6fff 0d3b 8407 57bd
000002b0: d3b7 96b7 b260 e4b9 5956 4d38 83db 5233
000002c0: 8193 1eb9 2161 9db9 e30a c5bd 9f8c 48bd
000002d0: 5917 0080 e0af 0180 5b1b 81b3 c6f9 0533
000002e0: 54c6 04ac ca4e 1126 119d e600 c7e2 9901
000002f0: ec20 1dbc cf64 c03b af9d 263e 50aa 9d3d
00000300: 2244 4638 3d25 d239 68ff f13d 7f14 433e
00000310: c136 86b8 2caa 5539 e16e 0100 a393 0300
00000320: 6862 6e3d 7d9c 29be 28d5 8dbe 8c12 b7bd
00000330: a9bd 99be b43d bc3c fcb0 22a5 10c5 65a3
00000340: ab63 823c cd2d 9ebd d0f6 39bd aa1b 0b3e
00000350: 1ff8 9fb0 30de a730 e51d 3282 501f 159b
00000360: 33bb 4619 af0c 0400 7a83 8323 9051 0824
00000370: 5ca2 9cb8 aaaa 8039 bebd 1fbd 5e04 913d
00000380: a77f 5435 94be 25b6 b8cf 19be 4b8e a13d
00000390: 76f0 7f37 5ad9 3fb9 85e3 aa3d 4a6a 0bbd
000003a0: 2791 32ac 16d7 ca9a 57d2 39bd 7ca6 a73d
000003b0: be91 8316 acc6 a500 5104 4339 db80 61ba
000003c0: f5f9 95ab 17fe 1aa5 90f8 ae38 359e c334
000003d0: 20bb 073e b4d0 d6bd 793d 33a9 6192 8b1d
000003e0: ae00 0b3d 5ac3 9f3d df38 9f3d 9af7 043d
000003f0: 0fdc cc3d d4b2 273e 70f8 0500 a2ba e801
-6.8066774e-17 -5.7496046e-16 0.24916834 -0.21311368 -0.0035049797 0.002756944 -1.3415293e-17 6.162656e-19
9.964671e-07 4.7633487e-14 -2.0652563e-11 9.629811e-12 0.021355014 -0.12743051 0.022401664 -0.10265309
6.0250084e-05 3.4090246e-07 -2.8386844e-24 1.12777016e-13 -0.10937019 -0.10195522 -0.00048288572 -0.0019096798
-1.0764977e-31 -1.6365e-40 -2.6152677e-25 -1.1116166e-25 4.0100485e-08 1.3281418e-07 0.01766778 0.22962151
0.0006786781 0.007028671 0.22734648 0.1173314 -3.9543803e-32 1.6630577e-32 -0.037892874 0.0735772
-3.235949e-14 1.2471195e-14 1.9697722e-12 -1.2416346e-17 4.663575e-07 1.8489715e-08 -3.27882e-29 -4.047565e-29
-0.122084744 0.06422374 -3.9901348e-05 -1.4736534e-07 -3.4661466e-23 -5.8843464e-23 -0.001120273 -0.0024927838
9.8310244e-24 -3.5392254e-20 -0.05871892 0.16700332 2.4109126e-12 -6.612619e-13 0.011213687 -0.05799205
0.1782723 0.08279808 4.5341333e-34 -2.9884958e-28 0.031912964 0.01220436 1.2205786e-28 1.8032055e-27
0.0027025682 0.0042020218 -3.4464196e-13 -1.7173592e-33 9.984758e-36 -6.9556e-41 2.4166064e-26 5.521003e-28
4.2009894e-32 -5.210884e-32 -0.00028095386 -0.0002147886 -0.001489016 0.0043630437 2.7758e-41 6.839622e-35
0.048879825 0.13398615 -0.004348728 0.0150001235 1.9808652e-19 -4.1214376e-12 0.025847321 0.029280609
2.9833594e-38 -4.40179e-38 7.7820153e-32 4.32899e-40 0.03229696 0.03273761 7.827544e-13 3.258821e-17
-0.0711815 0.1993306 0.09495094 0.042022973 -2.0114444e-14 1.298747e-18 -4.272896e-05 0.002225541
1.1209844e-05 -0.0003436319 3.9399e-40 -4.4265202e-24 2.1752253e-35 3.1459285e-35 -1.2250331e-10 2.8826913e-10
-0.0001728041 0.0020447562 0.06721374 -0.20652132 -0.00053011393 -0.0010734539 -6.05627e-40 6.0961537e-32
-0.0015083054 -0.002728916 -0.16695584 -0.23289654 -1.5515325e-13 -4.2701253e-19 -0.13812324 0.083325826
1.2702212e-15 -9.021155e-15 0.025230985 0.011400726 0.0036327862 0.005088928 0.012388861 -0.053984668
-0.0065943897 -0.010493472 -0.00029362197 1.672904e-05 -1.3752842e-28 -1.4714111e-28 -2.9449152e-28 4.32303e-40
0.0248492 -0.110553555 -0.14371245 -0.069482505 -4.0882676e-07 2.2067596e-07 0.037984576 0.015230071
2.5608505e-18 1.7558629e-20 -0.047361676 0.03273883 1.06657e-40 2.2075e-40 3.8718054e-24 -1.82247e-40
-1.7229215e-37 -1.7315737e-34 0.0021667143 -0.0524974 -1.7966993e-05 -0.00043559592 4.8956226e-05 4.909408e-08
-0.00015123004 -0.0003001774 -0.09621217 -0.04896223 -8.376e-42 -1.54928e-40 -6.0120065e-08 3.1193643e-08
-1.8868422e-12 5.041376e-16 2.1178509e-38 5.6528733e-38 -0.009590369 0.0058713923 0.16271089 0.076985
4.7270332e-05 0.00040082066 0.11816293 0.19050787 -6.3998166e-05 0.00020376657 1.31611e-40 3.28469e-40
0.058199316 -0.16563602 -0.27701688 -0.089390844 -0.30027512 0.022978641 -1.4111225e-16 -1.24558445e-17
0.015916666 -0.077235796 -0.045401394 0.13584772 -1.1639293e-09 1.2213999e-09 -1.3085954e-37 -1.2335109e-22
1.0274165e-23 3.71892e-40 1.4258731e-17 2.9559385e-17 -7.4689015e-05 0.00024541217 -0.03899931 0.07080911
7.9161913e-07 -2.4697847e-06 -0.15020645 0.07888468 1.5255171e-05 -0.00018296149 0.08344177 -0.034036912
-2.5375897e-12 -8.389273e-23 -0.04536661 0.08186051 2.1256168e-25 1.5224127e-38 0.00018598257 -0.000860227
-1.0656464e-12 -1.344346e-16 8.343265e-05 3.643669e-07 0.13254976 -0.10489026 -3.9799303e-14 3.6944346e-21
0.033936195 0.07800932 0.07774519 0.032462694 0.1000291 0.16376811 5.483e-40 8.5491145e-38

decoder_lin.0.bias f4 [128]
00000000: 4eaa 94a7 fdae 433c 22fa d338 fe36 b1b1
00000010: bc56 82b6 b202 002f 1247 ef3c 16f1 e039
00000020: 4e91 64bc 54d9 dab1 49e8 c2bc 08e5 d6b9
00000030: 635e 6aa8 ad0e ab18 cdf8 8ab6 800c 163d
00000040: 3916 75ba 49fd a9b9 fc83 7f8c a19f 5b3c
00000050: a333 65aa 36c7 1eac 6142 16b6 3b25 2011
00000060: 69c8 bdba e6e3 92b8 1a59 f7b4 3a6b 02ba
00000070: ac2b ecae ff75 5a3d d391 ddb8 fe22 0fba
00000080: c268 77bb 7858 2aac 0dc8 ccba ddd0 4a94
00000090: 842e 213a 5cb4 baab 79eb 97a5 0849 5994
000000a0: ebc8 4b8e 9e8f 47b8 cdba c8b9 e148 5298
000000b0: 6c34 8e3b a489 29b9 7c93 f3b1 f531 1abd
000000c0: ebb9 a085 cdc0 2992 c656 c03b 85ae 65b3
000000d0: 3dd1 23bc dfdf 11bb f2ea 9cb2 b1d2 a6b9
000000e0: db6f 5ab9 b022 46a8 58a7 c386 5e29 0bb6
000000f0: 1de5 c6b9 a5c2 133c adfd 9ab9 3a8a 5194
00000100: f3eb 3dba c715 1f3d c692 b6b3 f62c 9eba
00000110: 81d3 49b2 d076 ecbb be6e 373a 74fe 39bc
00000120: 238d 123a 3962 dbb8 6c5d 8692 7664 a89e
00000130: dccc 523a 956d ab3a 1ce9 21b7 b355 c7ba
00000140: f992 91b2 be85 53ba 6ab1 a3ab 8d47 279e
00000150: 936f 29a5 7d5a 493c 8ad5 52b9 7cf6 82b8
00000160: 4bd0 7fb8 ca20 293d 0e52 05a2 9eb4 32bc
00000170: 1b05 caab c100 2083 b03c 08ba 1ce3 50bb
00000180: 9781 3db8 c0d2 25bc 0f90 6ab8 6f45 bba8
00000190: 8902 773d 8a5f 6a3c ae92 1a3d 739d b3ba
000001a0: 18df 21b9 55ea d2bb 1aed f9b6 3ea4 43a5
000001b0: 764f 629c d40e a9b2 1293 efbc b2f9 1f3c
000001c0: 83e5 32bb 308b bfba 1294 c7b8 b5f4 f03c
000001d0: 3b52 cdb1 9d63 3b3c 506c 0799 a3cd 80b9
000001e0: 2165 2eb2 c8ca d0b8 79ba aa3a aa0b 79ad
000001f0: 01d6 b4b8 41aa 17bb 749a 0bbc 7821 9798
-4.1262897e-15 0.011943576 0.00010107855 -5.15763e-09 -3.884399e-06 1.164249e-10 0.029208694 0.00042904232
-0.013950659 -6.3693424e-09 -0.023792403 -0.00040987902 -1.3010076e-14 4.4217283e-24 -4.1416847e-06 0.036633015
-0.000934932 -0.00032422904 -1.9684203e-31 0.013404758 -2.0357201e-13 -2.2563735e-12 -2.239038e-06 1.2633247e-28
-0.0014479283 -7.004272e-05 -4.6072165e-07 -0.00049750844 -1.0739795e-10 0.053335186 -0.00010565263 -0.00054602313
-0.003775165 -2.4207563e-12 -0.0015623585 -1.0239585e-26 0.0006148594 -1.3266155e-12 -2.6353887e-16 -1.0970103e-26
-2.511842e-30 -4.757905e-05 -0.0003828615 -2.7178658e-24 0.0043397453 -0.00016168371 -7.088998e-09 -0.0376453
-1.5114623e-35 -5.3564643e-28 0.005869719 -5.3476942e-08 -0.009998617 -0.0022258682 -1.8267631e-08 -0.00031818965
-0.0002083177 -1.099873e-14 -7.3596737e-35 -2.0736693e-06 -0.00037936206 0.009018575 -0.00029562172 -1.0579064e-26
-0.0007244937 0.038839128 -8.5017334e-08 -0.0012067843 -1.174783e-08 -0.007216312 0.0006997398 -0.01135217
0.0005590489 -0.00010461029 -8.479619e-28 -1.7829242e-20 0.00080413907 0.0013078923 -9.650623e-06 -0.0015208035
-1.6947057e-08 -0.00080689404 -1.1631089e-12 -8.855703e-21 -1.4696216e-16 0.0122896405 -0.0002010671 -6.244794e-05
-6.0990726e-05 0.041291036 -1.80683e-18 -0.01090732 -1.435438e-12 -4.702064e-37 -0.00051970314 -0.003187365
-4.51818e-05 -0.0101210475 -5.5924113e-05 -2.0791283e-14 0.060305152 0.014305005 0.03773754 -0.001370354
-0.00015437265 -0.006436626 -7.4483805e-06 -1.6969201e-16 -7.487983e-22 -1.9680932e-08 -0.029244933 0.009764122
-0.0027297444 -0.0014613625 -9.51664e-05 0.02941356 -5.9756338e-09 0.011437324 -7.00121e-24 -0.00024567274
-1.0151127e-08 -9.955984e-05 0.0013025544 -1.4156601e-11 -8.62293e-05 -0.002314225 -0.008520711 -3.906638e-24

decoder_lin.2.weight f4 [288, 128]
00000000: 5c02 ae23 14a9 24bc 3a70 27ba 93d0 0580
00000010: 6f07 3a9f 5824 622c 2ebb 4f3c c565 213c
00000020: fb12 3732 7f0c 8592 9a40 1e3c de46 0639
00000030: 17a1 0600 d338 9116 78b3 3c1e 53a1 82bb
00000040: 0e33 34a1 9d6b a9ba ba04 1a06 182c 16bc
00000050: d540 9627 d814 d19f ac1a 4b28 20c8 0e0f
00000060: b61b 84bc 4003 e723 7796 8998 84d5 5939
00000070: cd52 0100 5ee2 81bc 46c2 b428 41c3 b03b
00000080: 03b5 10ba 2589 0680 9fe7 4eb9 6022 5b0e
00000090: 896d fcb7 f610 0080 ac2f 0780 72d2 7091
000000a0: 109c 638a 1a35 7137 68e8 3db7 411e 0480
000000b0: ffbb 8737 d34e 54b9 a419 4380 8dfc bd3b
000000c0: e9a7 4002 f658 0180 8fc2 08ba bdb9 1586
000000d0: 2fe6 8239 54ba a6b9 48a6 0380 dd93 4ca0
000000e0: 4a71 1335 3d13 0100 e960 8d04 9358 c285
000000f0: e227 b71f 5c45 a23c 4191 a038 5a98 0500
00000100: 8e45 5839 a2f7 c23c d130 8699 db20 abbc
00000110: 08f0 af81 f2f6 d5b6 60cb 27b8 173c 503a
00000120: fe64 ac3a f51f dbb6 2b87 688f d46a 0380
00000130: 7609 2e3c 2a44 eb3b 5837 449f 4722 5cb9
00000140: 3fc9 0000 5575 0bbc 3d38 0080 86ef 0100
00000150: 9c6a 0300 cf56 b43b 108c 2a36 febc 18a9
00000160: 4208 cd37 50bd a93b 8487 ae80 19b0 4731
00000170: 1147 0d24 ea56 1d01 6917 e0ba fa4a 03ba
00000180: e917 39ae d5f4 f838 3db2 1c88 307e 0600
00000190: 443b 873c f35a 033c d5f6 97bb e0d6 a29f
000001a0: 7136 f03b 8f3e 8d38 71e4 ca9b c964 0380
000001b0: 8861 0400 b8a1 0300 34aa 9638 44bf 0abc
000001c0: 25c2 4bb3 f660 a1bc 1aae 6a35 3a62 f73a
000001d0: 2bd1 0500 9367 24bc 1c88 0380 b602 8ab6
000001e0: f7bd ba05 2c9d 04aa b426 6abc 5a3f 0300
000001f0: 6235 c836 30ee 77b9 b26e d238 b961 0300
00000200: 208b 0780 4eb9 08b3 dc5c c528 1519 0000
00000210: 86a1 1880 541d 0700 7112 e6b4 3372 2a2c
00000220: 5386 0380 d87b 0500 3b46 d92b 70f2 4729
00000230: 1dc5 1e00 46e8 0300 6248 85a4 ce50 92ac
00000240: 9e28 04a9 b465 75ac 4653 0380 469d 0bac
00000250: 9417 2781 ca16 0200 8f4b 16a4 ff1f 0500
00000260: 6e05 682a 107f 06a3 7079 9880 3694 3029
00000270: 597b 0480 0210 b1ac 6528 1100 7de4 4d2b
00000280: 224f 9b2b 6fab 0500 8064 85ab 30d5 0080
00000290: bfe8 832a b42f 0580 e88c 0600 3b63 0680
000002a0: 3256 0580 eebf a6a8 c46d 072a 9ba5 0380
000002b0: 8872 f42b 613b a72a fbdc 0580 dfb7 0280
000002c0: 409c 4280 f486 0300 0a56 ddab 85dd 0200
000002d0: 54e5 d82a d8af 002c d2ee 0480 b0ef e928
000002e0: 920a 4329 01a1 0300 31c8 0f00 0743 0480
000002f0: 7102 db28 5012 9fb1 6301 c5a8 2465 0780
00000300: 3d23 0a2a 1d3c 07b7 6690 0780 3c05 852b
00000310: 96f6 0380 28fb 57aa d44b 5eaa b23a c129
00000320: 3a6d 7929 eeba 5128 ef3d 0400 b7cf 0600
00000330: 49f3 b0ab c532 352b 2e83 bd26 71de 20aa
00000340: e4f5 0400 7334 37ab b390 0180 493a 0100
00000350: d259 0100 9c90 36ac 630d 8ea8 5b2a 8027
00000360: 7800 f527 2f24 2fb3 a13d 0080 ec45 0080
00000370: 5ffb 0500 fb14 0780 4e0f 0e2a 5838 d1ab
00000380: 5a84 12a8 f439 472b 583e f727 8144 0400
00000390: 3843 67b8 c486 472b 5f40 0aac c334 0280
000003a0: e453 fe2b 8ab4 142c bda5 0380 be9a 0100
000003b0: e5df 0100 63cb 1d00 e0ec 0280 7097 8929
000003c0: 762a 0100 3743 152b 7e9c 8828 157c 17af
000003d0: ed1e 0380 269a e2aa 1c6c 0600 29b2 1ca7
000003e0: 7e55 0100 11b0 a026 42e9 7aab cbd2 0200
000003f0: 2227 feaa 4aea a82b 1841 a9a9 0c0d 0480
1.8866117e-17 -0.010050077 -0.00063872675 -5.34e-40 -3.939318e-20 3.2136706e-12 0.012678904 0.009850924
1.0656318e-08 -8.396561e-28 0.009658957 0.00012805636 6.08801e-40 2.3461875e-25 9.98975e-21 -0.0039865165
-6.105394e-19 -0.0012925748 2.8967653e-35 -0.009165786 4.1703654e-15 -8.8549426e-20 1.1274547e-14 7.039683e-30
-0.016126495 2.5046447e-17 -3.55656e-24 0.00020774273 1.21539e-40 -0.01585501 2.0068267e-14 0.00539437
-0.0005520137 -6.00211e-40 -0.00019731976 2.7010385e-30 -3.0091747e-05 -6.084e-42 -6.5995e-40 -1.899751e-28
-1.09590045e-32 1.4377083e-05 -1.1319389e-05 -3.78195e-40 1.6180797e-05 -0.0002024726 -6.162176e-39 0.0057979287
1.415412e-37 -1.23749e-40 -0.000521698 -2.8160244e-35 0.00024967032 -0.00031800813 -3.35157e-40 -1.7328396e-19
5.4926625e-07 9.8737e-41 3.323794e-36 -1.827621e-35 7.7569495e-20 0.019808464 7.65645e-05 5.13831e-40
0.00020625276 0.023799721 -1.3874992e-23 -0.02088969 -6.4629275e-38 -6.376643e-06 -4.000531e-05 0.00079435244
0.0013152657 -6.530429e-06 -1.14645155e-29 -3.13829e-40 0.010622373 0.0071797566 -4.1550394e-20 -0.00020993604
7.2193e-41 -0.008511861 -2.0174e-41 1.7776e-40 3.13751e-40 0.0055035125 2.54135e-06 -3.3914705e-14
2.444175e-05 0.0051800385 -1.602799e-38 2.9058411e-09 3.0634697e-17 2.8898704e-38 -0.001709682 -0.0005008426
-4.2085366e-11 0.00011871165 -4.715406e-34 5.9628e-40 0.016507752 0.008017289 -0.004637579 -6.896515e-20
0.0073307087 6.7350564e-05 -3.3565724e-22 -3.11661e-40 4.0233e-40 3.3352e-40 7.18426e-05 -0.008468453
-4.7441194e-08 -0.019699555 8.7425144e-07 0.0018873878 5.34213e-40 -0.01003446 -3.24333e-40 -4.113036e-06
1.7561138e-35 -1.1778485e-13 -0.014291454 2.98233e-40 5.966679e-06 -0.00023644487 0.00010034199 3.10563e-40
-6.92757e-40 -3.18335e-08 2.1911665e-14 8.998e-42 -2.261996e-39 6.5337e-40 -4.2854256e-07 2.4221846e-12
-3.23693e-40 5.03604e-40 1.543827e-12 4.4397157e-14 2.825776e-39 3.5883e-40 -5.780218e-17 -4.1585407e-12
-2.9345118e-14 -3.487305e-12 -3.0538e-40 -1.9840392e-12 -3.0689972e-38 1.91846e-40 -3.2590066e-17 4.70656e-40
2.0607623e-13 -7.291061e-18 -1.4002559e-38 3.9208403e-14 -4.11591e-40 -5.03242e-12 1.575694e-39 7.314772e-13
1.1035376e-12 5.20676e-40 -9.478113e-13 -7.6477e-41 2.3431775e-13 -4.7629e-40 6.0156e-40 -5.8661e-40
-4.90099e-40 -1.8512938e-14 1.2028491e-13 -3.34915e-40 1.7369032e-12 2.9706362e-13 -5.3845e-40 -2.49632e-40
-6.117195e-39 3.23919e-40 -1.5726875e-12 2.63137e-40 3.8528436e-13 1.8287507e-12 -4.53015e-40 2.5972144e-14
4.3307866e-14 3.33264e-40 1.449348e-39 -3.91387e-40 2.4314943e-14 -4.629591e-09 -2.1871995e-14 -6.79131e-40
1.2269088e-13 -8.060623e-06 -6.94649e-40 9.451671e-13 -3.63965e-40 -1.9182973e-13 -1.9743869e-13 8.581104e-14
5.5383846e-14 1.16423645e-14 3.8956e-40 6.25527e-40 -1.2573077e-12 6.4374574e-13 1.3150066e-15 -1.428803e-13
4.55551e-40 -6.508745e-13 -1.43744e-40 1.12744e-40 1.24057e-40 -2.594403e-12 -1.5770973e-14 3.557306e-15
6.800167e-15 -4.077827e-08 -2.2108e-41 -2.5083e-41 5.49352e-40 -6.50375e-40 1.2617443e-13 -1.4865982e-12
-8.133327e-15 7.077943e-13 6.8623865e-15 3.91917e-40 -5.5137294e-05 7.0886027e-13 -1.9646713e-12 -2.02598e-40
1.807107e-12 2.1132284e-12 -3.34962e-40 1.47347e-40 1.72154e-40 2.736191e-39 -2.68646e-40 6.1102924e-14
1.07068e-40 5.3028713e-13 1.51669e-14 -1.3777453e-10 -2.866e-40 -4.0252627e-13 5.89795e-40 -2.174593e-15
1.22504e-40 1.1149953e-15 -8.914155e-13 2.59289e-40 -4.5146618e-13 1.2002146e-12 -7.5163996e-14 -3.72022e-40

decoder_lin.2.bias f4 [288]
00000000: bdca e3ba 6897 7ebc 0de4 8bba 2317 f3b8
00000010: 3dab b5ba c155 80bb 5a4f ffb7 a79d 0db4
00000020: 4529 dcba 8110 15b7 dd45 27b3 9e02 76b9
00000030: 1202 8bb9 209c f3bb 0c02 bfb3 f4eb ecb5
00000040: 1ce1 1ab7 b5e3 f9a0 5a70 87b8 251e 92b9
00000050: 928c 85bc 82dd aeb9 82a3 d798 04be 5bbb
00000060: 65fa 0dbc 1df5 1db5 242b 92ba 1fec ccba
00000070: 0caf efa5 4b01 e7bc 216e 52bb e5a1 443b
00000080: a0f9 dfb7 89a4 f139 cbc2 9abb 6e66 1e3a
00000090: 7c3f acbb 5ec3 f7af c586 61b2 b33c 21b1
000000a0: 6059 c7b9 762c 08bc b617 43a5 f0ad 43bb
000000b0: 96a8 a0bb 016c 0ebb 3d16 37ae 32ec 90b9
000000c0: dca0 95bb 8b8a 73bb 99ea f8bb a845 ad3a
000000d0: 9ed9 8c3a fded 6bb9 2f15 c23b 03f9 d0a6
000000e0: 7c09 72ba 6ced c7b6 b0c2 02bb 9cf4 a6b9
000000f0: b0a1 dea9 2bbf 37b1 0c17 51b7 cb99 efbc
00000100: 5016 7d3b 28b4 05b0 1efe fc3b 67a3 91bb
00000110: 17f5 043b dbea 9a39 370b 163c 5dbf 28bb
00000120: 435d 97bb f9e2 4cb3 b0a8 b83a 6b74 edb1
00000130: 0e5f cc3a dd2f 1d3b 580e 9ea6 b3e7 acbc
00000140: e331 e93b f1fa 10b7 3af4 1b3a eaa2 29bb
00000150: c18c 03a8 6a5f eeb9 8865 c6ae 7db3 31bc
00000160: 497b d0ab 40e2 d338 47ea e7b9 5dd0 81bb
00000170: 24e8 a7aa f42e 07bc 77f7 d53a 6062 313b
00000180: 5162 20bc 34cf 22bb 12e7 033b 3990 3cb7
00000190: 5de7 99b7 4c91 46b9 c3c9 0eb7 0854 b6ba
000001a0: c3be f1b6 eda2 9ab7 cd67 40bb 5327 a2b9
000001b0: 712e 64b2 f6e2 c73b 3bf7 a6b5 0481 5ba0
000001c0: 5171 11b9 aafc 78b7 d05c bb3b d8d3 0cbb
000001d0: 82fa 0dbb 2653 863b c9c8 9a3a 2b8c fd3a
000001e0: d353 fcba deab 7aa3 c27d fbb2 cab7 c2ba
000001f0: 36f0 b4bb 4909 b3ad 7fda d4bb 9d5d c696
00000200: fc47 a1bb 8cba b8ba 9463 78ba 4038 4ebb
00000210: 551f d1a3 77f6 753b dcae 12ba 152f 9bbc
00000220: ac7d 22bc 5cc1 38b6 b01c feb9 cd07 b7bb
00000230: d63c 18a2 9e3a c4b8 2a32 59bc 74b6 a03a
00000240: 68a7 23b4 314e 34a9 6196 2fbc 1e21 b7b6
00000250: be86 1b3b 8bae 0fbb 7b20 eeba 1868 46ba
00000260: 70db 163b 8595 093b c92b 0bb5 5031 2eb0
00000270: be57 82b0 c7b3 20b8 b137 b43b 5018 80ba
00000280: 6f58 6fbb 72d5 623c cffd 95bb 7417 76b9
00000290: c788 f1b7 2fc6 0eb6 48f8 42b3 9f7f 54b1
000002a0: e700 5fbb b509 23ba c89a 30b8 053a 79bc
000002b0: 290c edb8 aace a0b6 cbd6 94ba cba3 85b8
000002c0: 7172 18bb cb45 1939 8032 c2ba 372d d7bc
000002d0: 2e41 b33b a9e9 bb96 f3f0 c1bc 6853 883a
000002e0: 4f05 37aa b865 15b9 d50e 1e3b 37f2 2abc
000002f0: ccb9 65bc a6ce 9c3b c851 7593 0ee0 a13b
00000300: bc45 1c3b 85b8 f53b 6fe8 2f3b 1523 813b
00000310: b173 0eb6 a67f 84a9 1271 c7a7 ac5b 35b6
00000320: 6407 71bb 6495 44b9 398d a6b8 2e8a 09b5
00000330: 39c0 63ba 93ee 26bb a642 5b3b 11ad b3b4
00000340: 5ba6 66bb 6f7c f73b 52f6 13ab c81d 0abc
00000350: 7db6 583b 2320 1aa5 85bc 28bc d595 93ad
00000360: 402d c6b8 f538 e1bb e559 14a6 a606 e5ba
00000370: 0ee3 8dbc fc57 853b a00a ed3a 172a 3b3b
00000380: fca0 75b7 4e80 30bc 6693 94bb 15d6 b83b
00000390: ac3c 81a7 0ce1 e3ba 6f25 e5b7 f0eb 42b9
000003a0: 8fed 15b3 ee98 b93a 4002 a4a8 186a d7bc
000003b0: 0b79 043b d166 39b9 18b7 b3bb d3fd adbb
000003c0: a2b1 d53a f23e 10bb 580b 7bb9 2adf 00bc
000003d0: c462 23a2 7e8b a8b8 8fee 26bc 62db 62ba
000003e0: 0bdf 91a1 b67b d738 b8e5 6b3a 254c d9bb
000003f0: d651 773b 454a 2fbb 240f 69bb 8ae0 10bc
-0.0017379146 -0.015539028 -0.0010672823 -0.000115914525 -0.0013860237 -0.0039164727 -3.043532e-05 -1.3189002e-07
-0.0016796967 -8.884935e-06 -3.8946258e-08 -0.00023461363 -0.00026513688 -0.007434383 -8.894503e-08 -1.7652042e-06
-9.231528e-06 -4.2332925e-19 -6.458229e-05 -0.0002786975 -0.01630238 -0.00033352902 -5.57413e-24 -0.0033530006
-0.008665656 -5.8843744e-07 -0.0011151773 -0.0015634334 -4.1578507e-16 -0.028198859 -0.00321091 0.0030003723
-2.6699912e-05 0.0004608969 -0.004722928 0.0006042485 -0.0052565914 -4.5067855e-10 -1.3127367e-08 -2.3463087e-09
-0.00038022827 -0.008311382 -1.6921587e-16 -0.0029858314 -0.0049029095 -0.0021731856 -4.1629134e-11 -0.000276418
-0.004566295 -0.0037161435 -0.0075963256 0.0013219612 0.0010746007 -0.00022500004 0.0059229354 -1.4500394e-15
-0.00092329807 -5.9583017e-06 -0.0019952469 -0.00031844235 -9.886829e-14 -2.6738671e-09 -1.2462737e-05 -0.029248139
0.0038618036 -4.8641136e-10 0.007720723 -0.004444528 0.0020287686 0.0002954815 0.009157947 -0.0025748827
-0.004619272 -4.770388e-08 0.0014088359 -6.910843e-09 0.0015592293 0.0023984828 -1.096734e-15 -0.021106577
0.0071165427 -8.641496e-06 0.00059491734 -0.0025884458 -7.302482e-15 -0.00045465986 -9.022033e-11 -0.010846016
-1.4813507e-12 0.000101034064 -0.00044234304 -0.0039616064 -2.982624e-13 -0.008250941 0.0016324361 0.0027066693
-0.009789065 -0.002484274 0.0020126742 -1.1239253e-05 -1.8346758e-05 -0.00018936879 -8.510836e-06 -0.0013910541
-7.2045673e-06 -1.8434099e-05 -0.0029358745 -0.00030928347 -1.3281906e-08 0.006100054 -1.2439917e-06 -1.8592709e-19
-0.00013870491 -1.484078e-05 0.005717851 -0.0021488573 -0.0021664207 0.0040992675 0.0011809106 0.0019344141
-0.0019251056 -1.35889214e-17 -2.9277434e-08 -0.0014855799 -0.0055217994 -2.0354067e-11 -0.0064957733 -3.2047704e-25
-0.0049219113 -0.0014093681 -0.00094752875 -0.0031466633 -2.2673095e-17 0.0037530938 -0.0005595514 -0.018943349
-0.009917658 -2.7530687e-06 -0.0004846803 -0.0055856467 -2.0632048e-18 -9.3569266e-05 -0.013256589 0.0012261407
-1.524146e-07 -4.003585e-14 -0.0107170055 -5.4576803e-06 0.0023731436 -0.0021924104 -0.0018167639 -0.0007568612
0.0023018979 0.0020993662 -5.184525e-07 -6.337091e-10 -9.483683e-10 -3.8314403e-05 0.005499803 -0.0009772871
-0.0036521216 0.013844835 -0.0045773755 -0.00023469125 -2.879313e-05 -2.1275007e-06 -4.5394955e-08 -3.0922604e-09
-0.0034027637 -0.0006219403 -4.210582e-05 -0.015211587 -0.00011303306 -4.7924304e-06 -0.0011355517 -6.372443e-05
-0.0023261572 0.00014617217 -0.0014816076 -0.026266677 0.0054704165 -3.035894e-25 -0.023674464 0.0010400834
-1.6255507e-13 -0.0001424764 0.0024117727 -0.010433725 -0.014021348 0.0047853766 -3.0963669e-27 0.0049400395
0.0023845276 0.007498803 0.0026841422 0.0039409497 -2.122699e-06 -5.884121e-14 -5.5356187e-15 -2.7024462e-06
-0.0036778087 -0.00018747669 -7.9418016e-05 -5.1237555e-07 -0.0008688006 -0.002547179 0.0033456474 -3.346727e-07
-0.003519437 0.0075526754 -5.256673e-13 -0.008429952 0.0033067756 -1.3368259e-16 -0.010298853 -1.6778504e-11
-9.449804e-05 -0.006873245 -5.1469645e-16 -0.0017473295 -0.017320182 0.0040693264 0.0018084832 0.0028559023
-1.464062e-05 -0.010772778 -0.004534173 0.005640755 -3.5870473e-15 -0.0017385795 -2.7316359e-05 -0.00018589175
-3.4907824e-08 0.0014159956 -1.8208633e-14 -0.026295707 0.0020213749 -0.00017681277 -0.005484473 -0.005309799
0.0016303549 -0.0022010175 -0.00023941451 -0.007865706 -2.2142905e-18 -8.036847e-05 -0.010188713 -0.00086539064
-9.884621e-19 0.00010275042 0.00089987693 -0.0066313916 0.0037737987 -0.002674715 -0.0035562003 -0.008842597

decoder_conv.0.weight f4 [32, 16, 3, 3]
00000000: 8825 873a 2118 5cbb ae43 f6bb b632 9e3c
00000010: 5580 8bbb 62a3 933c 8367 0cbb 09b9 c83a
00000020: 584c f33b ccd5 193c 9c3f 68bc e58d edbc
00000030: 4d08 9f3b 8c39 c6ba ef42 fcb9 310b 35bb
00000040: 2976 31bc 90b5 843c ba93 3fbc 40e5 aa3a
00000050: ac0a b83a bcaf 303c e968 0cbb e2a7 853c
00000060: fd41 36bb 162d 37bb bd52 adbb 9715 2e3c
00000070: 23c3 5bbc fdd2 45bc f7dd 0e3c 0f69 203c
00000080: 8793 c63b 37cf f2bb d3fe b6bb 1871 7bbc
00000090: 2c08 f238 4dad 45bc 5ca6 d33b cf40 58bc
000000a0: 6cd0 cdbb 058c 25bb f0b9 25bc 1f12 b4bc
000000b0: ec5a 0bbc b6bf 9bbb f3e5 c6b9 7279 e839
000000c0: 3bfc 02bb e4f3 f63b 5c7c 47bb 7b69 c83b
000000d0: d3fb 0fbc 17ba d6bb 280f 133a d7b2 e239
000000e0: 48e4 023a 05e8 063b 796c 81bc cca6 56bc
000000f0: 132d c3ba 462b 8dbb 36e5 4c3b ebf5 a53c
00000100: 86d7 98bb b513 0e3a 74bb f83c 6980 e63b
00000110: 41e4 ff3c 82ec 013c 3c20 1c3b 4891 0dbc
00000120: 6e42 a33c 590e e43c 66d9 a63c 64de 02bc
00000130: 90e5 faba 3b44 673b 8933 c63b 5d95 55bc
00000140: 9598 88bb 20fe dfbb b26c a4bc c9c5 a2bb
00000150: 7248 713c b780 3b3a 79a0 57bb a3f8 2e3b
00000160: f360 df3b f7c2 92bb 6f74 a4bb 35d2 a63a
00000170: d14a 3f3c fa40 3abb cefd 0cbc 12d2 8e3b
00000180: 8bc0 b63b 5f4a da39 0c39 c639 3f58 c73b
00000190: 755f df3c 0705 25bd ac4c 1b3d de89 f63a
000001a0: 98f9 d43c 35a5 1b3c 4ece 3e3c 7c02 85bb
000001b0: 74d1 62bb d5c9 813c df2a 3f3c 00a4 58bb
000001c0: e084 fa3c 8418 753b 6c9e bfbb dbc3 b73c
000001d0: 3f77 bdbb 1209 4cbc 2689 e03b 62c7 71ba
000001e0: f525 8eba 663b 823b d988 aa3b 8811 2dbb
000001f0: 4ee6 dfba dd52 1bbc c076 19bc 7b5c c33c
00000200: 1ebd 863b b410 8abc 0fa7 db3c cd52 a43b
00000210: 3428 44bb a261 dc3c 9188 e83b 7879 b9bb
00000220: 4ba9 103c 9bc5 9ebb 0aa9 29b9 8fe4 833b
00000230: 928e 063c 8974 f8bb 8296 553c 773a 6a3c
00000240: 6f63 32bb 6e14 a3bb 363f c13a 838c 8d3b
00000250: 5a6a 973a ce0c e1bc d105 0bbb fe3e b6bb
00000260: 03bc 9e3a 4869 c5bb 0402 d8b9 78e7 48ba
00000270: 8f87 c1ba 4ff6 ed3c 5c70 ffbb 38ec 4c3c
00000280: 438b 473c 163f 40ba 9788 58bb 02b0 883b
00000290: dc03 1d39 a8dc a5ba 8019 1abc d5ba a53c
000002a0: c344 29ba 275d 8abb b27c 9fb7 3651 babb
000002b0: b386 943c 5528 1b3b 828c c6bb b8d2 13bc
000002c0: 3d3c 87bc 10d4 9d3a bf3a 1939 a10c 11bb
000002d0: 1496 9eba a2fd 4b3b 1dc7 3abc a42a 10bb
000002e0: 7c29 afb6 1ce1 fbbb 7a26 3f39 92ef 3039
000002f0: 8af9 3a3a f997 83bb 2198 deba 3647 a93a
00000300: 4ffb d23c 16fc 98bc 6c1f 29bc 8cde af3c
00000310: 88a7 87bc c3bd cb3a fa72 dfbb ebc9 2e3c
00000320: cee1 c4bb a496 2dbc 6ce3 1f3d aa39 47bb
00000330: ab89 a0bb 865f 99bb 1217 3e3a 52f1 00ba
00000340: 6e85 0c3d 69f3 293b c852 80bb ea49 88bb
00000350: 3b35 a53c f357 a7ba 38fe bb36 b91c a53b
00000360: 6942 afbb 10a4 6cbb 1eb6 bdbb 8fb7 b83c
00000370: bc99 8d3b 63a9 f3bc 79f7 9b3c 8a8e a03c
00000380: d99a 92bc d10c 043c f590 2ebd 8514 313a
00000390: a197 3b3c c38b d63b 5030 2abc ba3b a1b9
000003a0: 7f9c 1bba 2b26 02ba 29ac 3a3b d15b da3a
000003b0: ee0a 253a 3d39 3e3b 101c 28bc 098c 91bc
000003c0: 0009 cfbb 67da 013b c6fd 13bc d82c cdbb
000003d0: 2352 8c3c 557b 293d 4d4c 2e3b 8dec 29bd
000003e0: 679e f83c 5bd2 0fbb b6b8 62bc c566 ecbc
000003f0: e1ef a33a 1d72 d83b 3394 d7bb 6025 debb
0.0010310868 -0.0033583718 -0.0075153923 0.01931129 -0.0042572417 0.018022243 -0.0021424002 0.0015313934
0.0074248724 0.009389352 -0.014175322 -0.028998325 0.0048532845 -0.0015123351 -0.00048115055 -0.0027625079
-0.010831394 0.016199857 -0.011692936 0.0013038293 0.0014041266 0.010784086 -0.0021424836 0.016315404
-0.0027810328 -0.0027950457 -0.005289404 0.010625265 -0.013413223 -0.012074229 0.008719913 0.009790673
0.006060067 -0.007409956 -0.0055845766 -0.015346788 0.00011540981 -0.012065244 0.0064590406 -0.013199045
-0.0062809493 -0.002526046 -0.010115132 -0.021981297 -0.008505564 -0.0047530783 -0.00037936828 0.00044340972
-0.0019986767 0.0075363982 -0.0030439114 0.00611609 -0.008788067 -0.0065529454 0.00056098634 0.00043239325
0.0004993123 0.0020585072 -0.015798794 -0.013101291 -0.0014890752 -0.004308137 0.003126455 0.020258864
-0.0046643643 0.00054198067 0.030362822 0.0070343507 0.03123677 0.007929923 0.0023822924 -0.008640595
0.019929137 0.027838873 0.020367336 -0.007987592 -0.0019141901 0.0035288471 0.006048624 -0.013036099
-0.00416858 -0.006835714 -0.020071361 -0.0049674255 0.014726745 0.0007152664 -0.0032902046 0.0026698492
0.006816977 -0.004478808 -0.005018763 0.0012727441 0.011675552 -0.0028420077 -0.008605434 0.0043585384
0.005577152 0.0004163561 0.00037808006 0.006083518 0.027267197 -0.040287998 0.037914917 0.0018809398
0.025997922 0.009499838 0.011645867 -0.004059134 -0.0034609707 0.015843311 0.011667936 -0.0033056736
0.030580938 0.0037398646 -0.005847743 0.022432258 -0.0057820375 -0.012453334 0.006852287 -0.0009223131
-0.0010845052 0.003974366 0.005204302 -0.0026408155 -0.0017082186 -0.009480205 -0.009366691 0.023847809
0.0041119 -0.016853668 0.026813058 0.0050147534 -0.002993119 0.026902024 0.007096358 -0.005660232
0.008829425 -0.0048453338 -0.00016180068 0.004025049 0.008212702 -0.0075822514 0.013036372 0.014296166
-0.0027219912 -0.0049768006 0.001474357 0.004319729 0.0011552081 -0.027471926 -0.0021213184 -0.0055617085
0.0012110475 -0.0060245134 -0.00041200232 -0.0007663886 -0.0014765131 0.029048113 -0.0077953767 0.012507491
0.012179199 -0.0007333619 -0.0033040398 0.0041713724 0.00014974124 -0.0012654262 -0.009405494 0.02023069
-0.00064570847 -0.0042225304 -1.9012343e-05 -0.0056859506 0.018130636 0.0023675163 -0.0060592303 -0.009022407
-0.016508216 0.0012041349 0.00014613102 -0.0022132772 -0.001209917 0.0031126519 -0.011400011 -0.0021998072
-5.220236e-06 -0.0076867472 0.00018229513 0.00016873915 0.0007132521 -0.0040159193 -0.0016982594 0.0012914899
0.025754599 -0.018674891 -0.010322433 0.021468423 -0.016559377 0.0015544224 -0.006819126 0.010668258
-0.0060083633 -0.010594998 0.039035246 -0.003039936 -0.004899224 -0.0046805767 0.00072513625 -0.0004918772
0.034306936 0.0025932437 -0.0039161183 -0.004159202 0.020166984 -0.00127673 5.6026292e-06 0.0050388244
-0.005348493 -0.003610853 -0.0057895323 0.022548465 0.004321305 -0.029743856 0.019038903 0.019599218
-0.017896103 0.008059696 -0.04261871 0.0006755072 0.011449725 0.0065474226 -0.010387495 -0.00030752813
-0.00059361005 -0.0004964794 0.0028483963 0.0016659443 0.0006295879 0.0029025816 -0.010260597 -0.01776697
-0.0063182116 0.0019814016 -0.009032672 -0.0062614493 0.01712901 0.041377384 0.0026595772 -0.041485358
0.03034897 -0.002194545 -0.013837984 -0.028857598 0.0012507403 0.0066054002 -0.006578946 -0.006779358

decoder_conv.0.bias f4 [16]
00000000: 4be1 47b8 e069 7db8 bef9 c3b6 404c c938
00000010: 4235 9b38 6ec8 81b7 725f 29b8 f401 9a39
00000020: 2969 b939 4c80 76b7 0e44 0b39 d2d1 dbb8
00000030: ccd0 bd38 8eb4 4c38 7503 03b8 0a68 3d39
-4.7655118e-05 -6.0418504e-05 -5.8405267e-06 9.5986295e-05 7.400896e-05 -1.547133e-05 -4.038163e-05 0.00029374624
0.000353643 -1.4692614e-05 0.00013281425 -0.00010481816 9.051114e-05 4.8805545e-05 -3.1236053e-05 0.00018063202

decoder_conv.1.weight f4 [16]
00000000: 1fdd 333e 11fe 683e 9e21 2c3e 16e7 3d3e
00000010: 1a2b 1a3e d9e5 513e 87a4 503e 8d25 363e
00000020: 0e9c 853e 431f 1e3e 649c 883e 9ad8 5d3e
00000030: 072a 563e 07bd fb3d 0f09 813e f438 3f3e
0.1756482 0.22753169 0.16809699 0.18545184 0.15055504 0.20497836 0.20375262 0.17787762
0.26095623 0.15441613 0.26681817 0.21664658 0.2091447 0.122919135 0.25202224 0.1867407

decoder_conv.1.bias f4 [16]
00000000: be4f 5dbb d0b9 a9bc ffa9 6aba e26a 513c
00000010: ae9c a83b 1614 133c 15eb 40bc 62ad 01bc
00000020: da86 2bbc 69ff bb3b e583 15bd 1329 873c
00000030: e043 4e37 4339 913d cce6 51bc 5d9e af3c
-0.0033769454 -0.020718485 -0.0008951723 0.0127818305 0.005145631 0.008976957 -0.011774798 -0.007914873
-0.010469163 0.0057372344 -0.036502738 0.016499078 1.229436e-05 0.07091 -0.012811374 0.021437818

decoder_conv.1.running_mean f4 [16]
00000000: 395d acb8 2692 bcb9 75b3 4cb9 ee21 a3b7
00000010: 174b 1eb8 7b19 41ba 711c 90b9 6a86 313a
00000020: 2f10 04ba c06d b1b9 9255 b5b9 b540 c838
00000030: fa4e 08ba 8a3b f2b9 f38d 34ba 12b8 ef39
-8.218963e-05 -0.00035967043 -0.00019521809 -1.9446914e-05 -3.774007e-05 -0.00073661626 -0.0002748701 0.00067720434
-0.0005037812 -0.0003384184 -0.00034586765 9.548796e-05 -0.00051997567 -0.00046202197 -0.0006887607 0.00045722775

decoder_conv.1.running_var f4 [16]
00000000: 7999 ab34 33d1 e534 7155 7b34 a9d0 5834
00000010: 61c3 4434 5cc7 2235 0e08 ac34 05e6 e634
00000020: 292e 8035 668a b134 6d62 da34 0ae2 0935
00000030: 1b4b 3435 4a5a 7534 b736 5e35 6a54 fc34
3.1962898e-07 4.2806786e-07 2.340728e-07 2.0192478e-07 1.8325001e-07 6.063981e-07 3.2043357e-07 4.30082e-07
9.550178e-07 3.3069517e-07 4.0677278e-07 5.136541e-07 6.716452e-07 2.285025e-07 8.2781065e-07 4.7000077e-07

decoder_conv.3.weight f4 [16, 8, 3, 3]
00000000: 2bed 3fbc 944c 82bc 9dc0 97bc a339 91bc
00000010: 03e1 c4bc 3a85 a4bc a563 943a ae89 9bbc
00000020: b175 6bbc c4e7 36bc 1173 1cbc 2131 12bc
00000030: eae0 babc e2f6 1fbd a321 b5bc 1a1c 78bb
00000040: 17d9 13bc 0a6c 0abc c507 083c 41fe 303d
00000050: fd0c f43c 2836 193b 93b9 583d 1486 2c3d
00000060: 48f3 3e3c d5a1 463d a5b2 e73c a28d 4fbc
00000070: 31a7 1cbc d6d6 5fbc 92e8 03bd dda6 dbbc
00000080: d9e0 02bc 9b96 3e39 9c4e 103c ba85 943b
00000090: 7729 50bc a72a 07bc 85e7 3dbc e24f 0dbd
000000a0: 0e0e 02bd 12e1 9339 0bf2 8bbc 5081 19bc
000000b0: e969 033a 6248 91bc 8672 c2bb a5ba 4ebb
000000c0: a99d e8bc 21bc 86bc 7a41 003c bef3 97bc
000000d0: 0fa1 d2bb cd24 823b bc1b a2ba 5485 64bc
000000e0: db45 8ebc 6304 b5bc 2b05 1ebd c18e c9bc
000000f0: 54b8 9d3b d16f d8bb b228 15bc c6b6 c23a
00000100: eac5 44bc 055c b6bc 7a3e 9fbc 5448 6ebd
00000110: 2e1d f4bc 4793 6d3a 73b3 ecbb 6171 d8ba
00000120: f6a6 95bc 56f5 f7bb 1cf1 2f3c fae7 e6bc
00000130: 5914 76bc f7a0 ea3c ee89 cfbc d4a7 babc
00000140: 98c3 9c3c f589 55bc 9426 d63a 2f99 d33b
00000150: 4432 c6bc ec8a 34bc 9683 c03c c9bc e6bc
00000160: be48 94bc eb61 823c 24c4 793c 1934 613c
00000170: 4418 26bd f51f c53c 775a 6d3d 2947 95bd
00000180: db6e e23c 8b90 963d f259 32bd 4aa1 c1bc
00000190: b07d 393a e397 8f3c 5645 3dbd 1125 8dbc
000001a0: 9b19 f13c f23b 3cbd 40de d9bc becb bd3c
000001b0: fd5f 8ebc 336a d03b 53c8 9a3c 96bf 14bd
000001c0: 3027 0abc bc4c cf3c 75de 2fbd 942e 92bc
000001d0: 8b4a cb3c 2256 4fbc 56d8 eb3b b935 4e3c
000001e0: 85b6 e9bc 3eac 37bb 3c8d 823c 6cd1 13bd
000001f0: 2cf1 8abc ab99 7a3c 0652 adbc d271 fd39
00000200: 3a64 0f3c 05f3 1bbd db70 90bc 9613 0c3d
00000210: efdb 2bbd f2a2 1bbd a32f ca3c 9fb0 babc
00000220: 7b1d ddbb 28c7 6f3c e8fc 0bbd ef98 9cbc
00000230: ec5d 053d c7a1 33bd 4446 12bd bb45 e73c
00000240: c0a6 123b 4731 cb3a 255a 89bc e0dd 1e3c
00000250: 53cd 4cbc a32e a3bc d92f f83b 7c94 a6bc
00000260: 5d17 8bbc 5ba4 b83a 9651 b139 6a62 47bc
00000270: ecc8 cb3b 3ef8 99bb 7eb8 64bc 699c 173a
00000280: 3fbf 91bc fba4 5fbc d412 f3bc df08 a0bc
00000290: 2f83 773c 97b0 4abd 14ee 73bc 72bd 4e3d
000002a0: 1021 eabc 5077 a8ba b5a8 0c3d ef66 133c
000002b0: 9579 a23b 5b53 bc3b 61d5 9c3c f7a9 11bc
000002c0: 505a 8f3c dbf8 d93a 686c b5bc f859 e8b9
000002d0: a58d 213c 1dda 0e3c 2ce0 b43c 4bf3 873c
000002e0: 7350 0ebc dcad 2f3d 76fd de3b f0fc 9abc
000002f0: 232e bc3c 15ff 253c ca31 0e3c 2392 283d
00000300: ccef 2c3c 0d8b 45bc 9bf8 943d 9071 993b
00000310: 30fd 8bbc 1eba 413d 83fd fb3b db59 4f3c
00000320: ad02 21bc 2ceb 803c aab9 03bc 7997 37bc
00000330: e526 153c 0ac8 b9bc 9da2 aabc 6fa3 0a3c
00000340: 50e0 033c cca0 85bc c51f 8e3c b1e0 4dbb
00000350: f2a1 ecbc e847 ba3a d572 7bbc 43a7 bfbc
00000360: 0b8e 3cbc cdc5 e6bc f84f 8bbc 183b d4bb
00000370: fccc 2ebd d030 f5bc e451 943c 73fd b03c
00000380: b238 24bb a4cb 62b8 2cc5 d9bb 7f1d ffbb
00000390: 062d cdbb 48d8 f7bc b90b d0bc 3771 f8bb
000003a0: a2d2 9abc f39c ccbc 9524 d6bc 73b7 a6bc
000003b0: 111b bbbc 34ac c2bc b727 773b a50b 20bc
000003c0: e79a f33b 7a01 3f3d 4686 8c3c 8cac 643a
000003d0: ab1a 3b3b fff2 febb cb94 cabc a74c d3bc
000003e0: 6381 dfbc 542d fdbc 0893 41bd e33e 02bd
000003f0: f0f6 3dbb 101e a13b e508 d1bb 3125 e5bc
-0.01171426 -0.015905656 -0.018524462 -0.017727679 -0.024033075 -0.020083059 0.00113212 -0.01898655
-0.014371322 -0.011163656 -0.009548918 -0.008922846 -0.022812326 -0.039053805 -0.022110766 -0.0037858547
-0.009023926 -0.00844861 0.008302634 0.043211225 0.02979135 0.0023378227 0.052911352 0.042120054
0.011654682 0.04849418 0.028283427 -0.012668045 -0.009561346 -0.013662061 -0.03220422 -0.026812965
-0.007988178 0.00018175917 0.008807804 0.004532543 -0.0127051985 -0.008249915 -0.011590843 -0.03450001
-0.031751685 0.00028205715 -0.017083189 -0.009369209 0.0005013035 -0.01773471 -0.0059340624 -0.0031544354
-0.02839549 -0.016447129 0.007828111 -0.018548843 -0.006427891 0.003971672 -0.0012367885 -0.0139478035
-0.017367294 -0.022096818 -0.038579147 -0.024604203 0.0048132334 -0.0066051264 -0.009103941 0.0014855496
-0.012010077 -0.022260675 -0.01943897 -0.058174446 -0.02979907 0.00090627786 -0.0072235405 -0.0016513282
-0.01826809 -0.007567088 0.010738637 -0.028186787 -0.0150195 0.028641207 -0.025334325 -0.022785105
0.019136235 -0.01303338 0.0016338401 0.00645747 -0.02419389 -0.01101945 0.023500245 -0.028166192
-0.018101092 0.015915832 0.0152445175 0.013745331 -0.040550485 0.02406309 0.057947602 -0.07288963
0.02764075 0.07351788 -0.04354281 -0.023636479 0.0007075919 0.01752848 -0.046208702 -0.017229589
0.029431155 -0.045955606 -0.026595235 0.02316844 -0.017379755 0.006360316 0.01889435 -0.036315523
-0.008432195 0.025305144 -0.04293676 -0.017844476 0.024815818 -0.012654813 0.00719742 0.012586051
-0.028529415 -0.0028026248 0.015936486 -0.036088392 -0.016960703 0.015295426 -0.021157276 0.00048340723
0.008751923 -0.03807356 -0.017631939 0.034198366 -0.041957792 -0.037997194 0.024680918 -0.022789298
-0.006747899 0.014634885 -0.034176737 -0.019115893 0.032560274 -0.043855455 -0.03571154 0.028231492
0.0022377223 0.0015502357 -0.016766617 0.009696454 -0.012500125 -0.019919699 0.0075740633 -0.020334475
-0.016978914 0.0014087068 0.00033820857 -0.01216946 0.00621902 -0.004698782 -0.013960002 0.00057835
-0.017791389 -0.013650174 -0.029672064 -0.01953548 0.01510696 -0.049484815 -0.014888305 0.050473638
-0.028580219 -0.0012852941 0.03434058 0.008996709 0.0049583414 0.0057472414 0.019144716 -0.00889062
0.017499119 0.0016629951 -0.022146419 -0.0004431752 0.009860431 0.008718994 0.02207955 0.016595503
-0.008686173 0.042890415 0.0068051172 -0.018919438 0.022971218 0.010131617 0.008678863 0.04115499
0.010555219 -0.012057078 0.0727398 0.004682727 -0.017088503 0.047296636 0.007690133 0.012655701
-0.009827298 0.015737139 -0.008039871 -0.0112055475 0.009103511 -0.022678394 -0.020829493 0.008461817
0.008049086 -0.016312025 0.017349133 -0.0031414444 -0.028885815 0.0014212104 -0.015347202 -0.023395186
-0.011508475 -0.02817049 -0.017005906 -0.006476771 -0.042675957 -0.029930502 0.018105455 0.021605229
-0.0025058207 -5.4072254e-05 -0.006645819 -0.0077854986 -0.0062614707 -0.030254498 -0.025396215 -0.0075818556
-0.018899266 -0.024977183 -0.02614049 -0.020351147 -0.022840055 -0.023763753 0.003771288 -0.009768401
0.0074342373 0.046632268 0.01715387 0.0008723221 0.002854983 -0.0077804322 -0.024729153 -0.025793387
-0.027283376 -0.030905403 -0.04725936 -0.031798255 -0.0028986298 0.004916914 -0.006379234 -0.027971836

decoder_conv.3.bias f4 [8]
00000000: dcf8 37b7 1060 1438 1f2d 8d37 00b2 b0b6
00000010: 9576 b336 cfdb 3eb6 bcc2 2237 638e 0e37
-1.0965592e-05 3.5375415e-05 1.6829521e-05 -5.2659307e-06 5.3484205e-06 -2.8440152e-06 9.701293e-06 8.497012e-06

decoder_conv.4.weight f4 [8]
00000000: 18e2 013f 0013 d13e 741e 8e3f 70ee 1f3f
00000010: db74 0e3f 4a9d f23e 866e 153f a4d3 213f
0.50735617 0.40834808 1.1103044 0.624732 0.5564706 0.47385627 0.5837177 0.6321356

decoder_conv.4.bias f4 [8]
00000000: 7f67 c13e 1f80 c73e 5f24 113f 6d0f 153f
00000010: 2987 d93e 8e74 a63e 6bf2 f13e a206 0d3f
0.37774274 0.38964936 0.5669612 0.5822666 0.42485932 0.325108 0.47255263 0.55088246

decoder_conv.4.running_mean f4 [8]
00000000: b2dc 87ba de2f 3c3a 4faa 6539 b864 8f3a
00000010: b1ef ceb9 c529 11ba 12ee eab9 ba23 083a
-0.0010365455 0.00071787636 0.00021902587 0.0010940051 -0.00039469966 -0.0005537535 -0.00044809334 0.0005193312

decoder_conv.4.running_var f4 [8]
00000000: 9ea8 0538 ee53 ff37 e983 7938 a7a0 3438
00000010: c4d7 1138 9365 dc37 adbb 2038 31b2 3438
3.1866708e-05 3.0437452e-05 5.9489077e-05 4.3064963e-05 3.477164e-05 2.6273343e-05 3.832176e-05 4.3081298e-05

decoder_conv.6.weight f4 [8, 1, 3, 3]
00000000: 076d 40bd 7f57 15be fced a2bd 3016 89bd
00000010: 86c3 86be 8ca4 10be 2424 47be 0bcd d4be
00000020: d6ec 81be c975 9bbc 43c9 21be a311 87bd
00000030: 2526 e3bd 2675 bcbe f09c 51be 43a8 a0bd
00000040: b875 88be e65e 10be f846 c33e 9fbd 0d3f
00000050: 21b8 693e 2aef 0e3f f3c8 413f 5a25 833e
00000060: 6407 623e 7651 7a3e 2e9e 923c 73c5 c7bc
00000070: 56c8 39be 7db5 22be 1778 4cbe 2bdb 0fbf
00000080: 03d5 e8be 0aef 4bbd 6545 80be afaa 56be
00000090: 7de2 39bd c35d 30be 3cde 4ebe e070 07be
000000a0: cf72 b6be e6d7 cfbe 640b a0bd 2fcf 4cbe
000000b0: 5c18 83be 21fa babc 555b 5cbd e8d3 4bbe
000000c0: a645 82bd 6935 43be ffd3 c1be 9d8a 97bd
000000d0: 369c 1fbe f298 8bbe e303 73bd 2e82 24be
000000e0: 0b97 dabd fbbe 27be db59 d6be 283e 83be
000000f0: 326f 39be 06e5 ccbe 9618 81be 7e27 9abd
00000100: b22b 70be 1a58 b8bd f615 76be 75bf 13bf
00000110: 7b31 93be 603c 07be 7209 b3be 6dd2 22be
-0.046978977 -0.14584158 -0.07955548 -0.06693685 -0.26321048 -0.1412527 -0.1944738 -0.41562685
-0.25376004 -0.018977063 -0.15799432 -0.06595161 -0.1109126 -0.36808127 -0.20470023 -0.078445934
-0.26652312 -0.14098701 0.38140082 0.55367464 0.22824146 0.55833685 0.7569725 0.25614434
0.22073132 0.24445137 0.017897692 -0.024386143 -0.18142828 -0.15889545 -0.19967686 -0.561938
-0.45475015 -0.049788512 -0.25052944 -0.20963548 -0.04538201 -0.17223267 -0.20201963 -0.13226652
-0.35634467 -0.40594405 -0.078146726 -0.2000091 -0.25604522 -0.022824349 -0.05379804 -0.19905055
-0.06360941 -0.19063343 -0.37857053 -0.07399485 -0.15586933 -0.27265126 -0.05932988 -0.16065285
-0.106733404 -0.16381447 -0.4186543 -0.2563336 -0.18108824 -0.4001848 -0.2521407 -0.07527064
-0.23454168 -0.09001179 -0.24031815 -0.57714015 -0.28748688 -0.13206625 -0.34968144 -0.15900584
