models/encoder.onnx (onnx, 173773 bytes, 10 tensors)

encoder_cnn.0.weight f4 [8, 1, 3, 3]
0.00044585185 0.065614484 -0.038093783 0.0023912848 -0.13796654 0.05947702 0.0009562988 0.048855525
-0.0155943995 -0.003834485 -0.04450251 0.017107958 -0.052570987 -0.08205068 -0.0052758157 -0.008448989
-0.036766812 0.02155328 -0.00088198215 -0.00427951 0.033938937 -0.008212849 0.0072551216 0.04499626
-0.0061611845 0.014264434 0.033363048 -0.01877485 -0.021950481 -0.041364387 -0.024789663 -0.06178928
-0.059004966 -0.02191459 -0.05834347 -0.05930234 0.03169672 0.07257436 0.057464514 0.03507288
0.015005685 -0.014131083 -0.061450854 -0.09507707 -0.055854205 0.051433925 0.070149615 0.019150387
0.09234152 0.10038962 0.030504541 0.0633416 0.049230404 0.011225643 -6.711294e-16 -7.693096e-16
-6.627578e-16 -6.3177763e-16 -1.0359163e-15 -2.0301646e-16 -8.024886e-16 -3.7650278e-16 -3.2766096e-16 0.017078316
0.004180781 -0.045993324 -0.09433558 0.07334207 0.02490647 0.08096047 -0.084598444 0.006074481
00000000: 39c1 e939 e360 863d 3a08 1cbd 1ab7 1c3b
00000010: 1a47 0dbe 2d9e 733d 20b0 7a3a bb1c 483d
00000020: a77f 7fbc fc4b 7bbb 4448 36bd fd25 8c3c
00000030: ad54 57bd 300a a8bd c0e0 acbb a16d 0abc
00000040: cc98 16bd 8190 b03c d234 67ba 223b 8cbb
00000050: 8e03 0b3d 2f8f 06bc 5fbc ed3b 004e 383d
00000060: c3e3 c9bb 5fb5 693c b1a7 083d b7cd 99bc
00000070: 7fd1 b3bc b46d 29bd b113 cbbc c216 7dbd
00000080: 31af 71bd 3a86 b3bc 90f9 6ebd 03e7 72bd
00000090: 6bd4 013d dea1 943d e95f 6b3d 95a8 0f3d
000000a0: 68da 753c 0f86 67bc e4b3 7bbd c4b7 c2bd
000000b0: 61c7 64bd 61ac 523d 9aaa 8f3d 46e1 9c3c
000000c0: 8d1d bd3d 1399 cd3d a9e4 f93c 3eb9 813d
000000d0: d2a5 493d c2eb 373c 9c70 41a6 07bd 5da6
000000e0: e506 3fa6 f618 36a6 914a 95a6 e20f 6aa5
000000f0: 354d 67a6 010a d9a5 39e2 bca5 d3e7 8b3c
00000100: effe 883b 7f63 3cbd 0333 c1bd 5e34 963d
00000110: a708 cc3c 9ace a53d f341 adbd 710c c73b

encoder_cnn.0.bias f4 [8]
-0.004010771 0.1142784 0.07819414 0.17066154 -0.0025643175 -0.15628614 -9.527921e-16 -0.000793321
00000000: c96c 83bb cb0a ea3d 4024 a03d e6c1 2e3e
00000010: 1c0e 28bb 7909 20be d34f 89a6 dff6 4fba

encoder_cnn.5.weight f4 [32, 16, 3, 3]
0.0030612578 0.0012375086 -0.0010583203 0.003776909 -0.004200789 -0.002058714 0.0013648346 -0.0036356254
0.0009176987 -0.0057949866 -0.0066378308 0.0015623121 -0.0007718721 0.00063013786 0.0022929604 0.0060730674
0.0076469323 0.0023071629 0.0011086633 0.005628319 -0.0037032468 0.00056948833 -0.00065881433 -0.0028792527
-0.0028431453 -0.00028345553 -0.0036965667 -0.012266751 -0.0017051143 0.002214714 -0.0155096 0.004070144
0.008901468 -0.003334923 0.006024942 0.002745915 0.0025348237 -0.0041998276 0.000886368 0.004385074
-0.005515165 -0.0060132253 0.0019769568 -0.0056409114 -2.3100685e-05 -0.0094664935 -0.0006773588 0.0005253826
-0.0010298279 0.011259106 -0.0091066435 0.003757052 0.01730178 -0.004014426 0.0040309737 -0.0032505016
-0.0014681453 0.0010525302 -0.0035845828 -0.0028483523 0.0021524231 -0.004191453 0.00016777118 0.0019114104
0.008827112 -0.002249869 0.0030537408 0.00053216773 -0.0029241343 0.0011398375 -0.00044848013 -0.0026394932
-0.015923683 0.0060908035 0.016122306 0.00527889 0.005443824 -0.0054945773 0.0058538252 0.0052136416
-0.0015783376 -0.002629882 -0.007951196 0.00380507 -0.0023367582 -0.0076533705 0.008365969 0.003803821
0.00070556474 0.007231687 -0.012676334 -0.0009599314 0.001685476 -0.010429703 0.008839377 0.0023582987
-0.0033061441 0.00753384 -0.0015686272 0.0029250572 -0.0053271702 -0.0046873693 0.00047167594 -0.0029714536
-0.006319425 0.004224848 -0.003275498 -0.000748997 -0.010305826 -0.010728061 -0.008183915 -0.009390844
0.0067492644 -0.00923924 -0.0057302853 0.0038480938 -0.012470849 -0.009072897 0.012224563 0.0038592878
0.0019163565 0.009746958 -0.003356067 -0.003041241 0.0057811844 -0.0032391301 0.0011776553 -0.00420881
-0.002829755 -0.00034671155 -0.0019065512 -0.002737158 0.0020482072 -0.007413242 -0.004014358 0.0035644297
-0.0054735034 -0.0022984862 0.0007823739 -0.003758421 -0.0030148064 0.002511976 -0.0076527107 -0.002012582
0.0041604433 0.017674755 0.0014646319 -0.013563912 -0.017161934 -0.011955629 -0.006549155 -0.0068693827
-0.0068905805 0.00055800413 -0.02667147 -0.017731 0.0005135639 0.01191618 0.017380385 0.001996498
0.007678237 0.0047205742 -0.0022755458 0.012547679 0.004372101 -0.012077079 -0.01894125 -0.008321195
-0.0043844045 -0.004718385 0.0005962793 -0.040412787 -0.03723554 -0.017996097 -0.011258374 -0.010904426
0.001844754 0.018753579 0.018299159 0.025849625 0.013073269 0.021089014 0.00072040455 -0.004979296
0.0009094943 -0.0038649812 -0.010007361 -0.0059227077 -0.018456057 -0.0056705885 -0.018621504 -0.0013789955
0.0057591368 0.012667214 0.01758744 -0.004297513 -0.008924485 -0.011168652 0.007209341 0.010099767
-0.0005900632 -0.011580548 -0.00983952 -0.010244378 -0.0058783367 -0.0032375553 -0.012690197 0.00290362
0.011450106 0.0035509297 -0.010462855 -0.019512745 -0.009591324 -0.0049690856 -0.009939602 -0.00034131983
-0.01772529 -0.0010907766 0.016303012 0.038909037 0.050619204 0.04225503 -0.0069405413 -0.011126658
-0.009923523 -0.0022609988 -0.020150028 -0.018761145 0.00059234723 -0.0020211784 0.0021510674 0.014559236
0.022491481 0.025400333 -0.036110125 -0.038414557 -0.011315596 0.008699817 0.020398999 0.01837214
0.0019540014 -0.005434373 0.0012435502 0.010037089 0.0011949575 -0.005619041 -0.015076222 -0.0074996757
-0.014550111 -0.009105965 -0.007772994 -0.02370224 -0.021561285 -0.047937926 -0.025142143 0.0016796802
00000000: 629f 483b e633 a23a 56b7 8aba 0586 773b
00000010: c6a6 89bb 7deb 06bb 40e4 b23a ac43 6ebb
00000020: b891 703a dfe3 bdbb 2982 d9bb 7fc6 cc3a
00000030: 7657 4aba d62f 253a 7e45 163b 9500 c73b
00000040: 1e93 fa3b c533 173b 9150 913a c36d b83b
00000050: 2cb2 72bb b749 153a 48b4 2cba d8b1 3cbb
00000060: 1054 3abb c29c 94b9 1942 72bb 7cfa 48bc
00000070: 247e dfba bc24 113b fa1b 7ebc d85e 853b
00000080: 76d7 113c b98e 5abb e06c c53b cff4 333b
00000090: 491f 263b b59e 89bb 265b 683a abb0 8f3b
000000a0: 8fb8 b4bb 970a c5bb d58f 013b 65d7 b8bb
000000b0: 58c8 c1b7 5a19 1bbc c890 31ba d4b9 093a
000000c0: 4afb 86ba 1d78 383c 0834 15bc df38 763b
000000d0: 76bc 8d3c 728b 83bb 4216 843b 5e06 55bb
000000e0: c86e c0ba 0ef5 893a 52eb 6abb 6cab 3abb
000000f0: ab0f 0d3b 7558 89bb bceb 2f39 4a88 fa3a
00000100: 979f 103c 8a72 13bb 4521 483b 2c81 0b3a
00000110: d5a2 3fbb 9a66 953a fc21 ebb9 59fb 2cbb
00000120: 6272 82bc 5d95 c73b ed12 843c 8afa ac3b
00000130: 1b62 b23b db0b b4bb 72d1 bf3b 32d7 aa3b
00000140: 39e0 ceba 195a 2cbb bc45 02bc 7b5e 793b
00000150: 4c24 19bb 20c9 fabb 6b11 093c 8749 793b
00000160: a6f5 383a caf7 ec3b 66b0 4fbc e8a3 7bba
00000170: 31eb dc3a 58e1 2abc 09d3 103c b08d 1a3b
00000180: e5ab 58bb 6ede f63b 659a cdba 51b2 3f3b
00000190: 8b8f aebb 8198 99bb 464b f739 b8bc 42bb
000001a0: 2e13 cfbb 9870 8a3b bda9 56bb 5658 44ba
000001b0: c4d9 28bc c0c4 2fbc d415 06bc 0edc 19bc
000001c0: ef28 dd3b 2e60 17bc 1ec5 bbbb 4d30 7c3b
000001d0: 8852 4cbc 7da6 14bc 8949 483c 1bec 7c3b
000001e0: 412e fb3a b4b1 1f3c 76f1 5bbb 8f4f 47bb
000001f0: 1770 bd3b 9647 54bb 8e5b 9a3a 0fea 89bb
00000200: 6973 39bb d6c6 b5b9 3ee5 f9ba e461 33bb
00000210: 373b 063b c8ea f2bb e08a 83bb 3599 693b
00000220: 135b b3bb 33a2 16bb 3918 4d3a d74f 76bb
00000230: 0f94 45bb f79f 243b 97c3 fabb 86e5 03bb
00000240: 5454 883b a6ca 903c e4f8 bf3a 2c3b 5ebc
00000250: 2f97 8cbc 8be1 43bc 4b9a d6bb 8f18 e1bb
00000260: 61ca e1bb 0647 123a 207e dabc 9a40 91bc
00000270: b1a0 063a 153c 433c 4f61 8e3c aed7 023b
00000280: b899 fb3b 0caf 9a3b 5321 15bb c894 4d3c
00000290: d743 8f3b f1de 45bc ae2a 9bbc 9f55 08bc
000002a0: 0dab 8fbb af9c 9abb a04f 1c3a e187 25bd
000002b0: 4b84 18bd 8d6c 93bc 0b75 38bc 7aa8 32bc
000002c0: accb f13a 1ba1 993c 1ee8 953c 98c2 d33c
000002d0: 4431 563c dec2 ac3c 88d9 3c3a 5d29 a3bb
000002e0: 216b 6e3a a04b 7dbb eaf5 23bc 4613 c2bb
000002f0: 2831 97bc 58d0 b9bb 208c 98bc 69bf b4ba
00000300: 24b7 bc3b 258a 4f3c 8913 903c 27d2 8cbb
00000310: 0138 12bc b9fc 36bc 563c ec3b 7e79 253c
00000320: 79ae 1aba 57bc 3dbc f035 21bc 09d8 27bc
00000330: 109f c0bb 2a2d 54bb 8bea 4fbc a94a 3e3b
00000340: 3a99 3b3c b7b6 683b 656c 2bbc 31d9 9fbc
00000350: ee24 1dbc b6d3 a2bb b6d9 22bc 2cf3 b2b9
00000360: a134 91bc 64f8 8eba e58d 853c 155f 1f3d
00000370: 1556 4f3d 9c13 2d3d 7b6d e3bb 964c 36bc
00000380: 4696 22bc 442d 14bb ac11 a5bc f9b0 99bc
00000390: c047 1b3a bf75 04bb ecf8 0c3b dd89 6e3c
000003a0: 0e40 b83c 5c14 d03c 36e8 13bd 9558 1dbd
000003b0: 0d65 39bc ad89 0e3c cd1b a73c 2c81 963c
000003c0: b40e 003b d312 b2bb 9ffe a23a 9a72 243c
000003d0: 1fa0 9c3a ef1f b8bb 4202 77bc d7bf f5bb
000003e0: 9763 6ebc 2f31 15bc 9ab4 febb 332b c2bc
000003f0: 4ba1 b0bc 8f5a 44bd e5f6 cdbc b728 dc3a

encoder_cnn.5.bias f4 [32]
-0.0114238225 -0.027611284 -0.015018719 -0.02701863 -0.03083052 0.004157906 0.0030636042 -0.020922087
0.010081349 -0.032577965 -0.01790545 -0.0009841408 0.008234573 -0.033521213 -0.024108516 -1.8181823e-10
-0.00038850165 -0.0012486618 -0.006155687 -0.023014423 -2.2189907e-30 -3.2544493e-05 -0.027752955 -0.032580703
-0.039996263 -0.03202646 -0.022685084 -0.016029911 -0.017030364 -9.1025293e-10 -9.229218e-24 -0.02796658
00000000: fc2a 3bbc 0f31 e2bc 1311 76bc 2d56 ddbc
00000010: 4990 fcbc 0b3f 883b c0c6 483b cc64 abbc
00000020: 3e2c 253c 7970 05bd 73ae 92bc 49fe 80ba
00000030: 4dea 063c 8a4d 09bd 397f c5bc 48e9 47af
00000040: cfaf cbb9 23aa a3ba a5b5 c9bb be88 bcbc
00000050: a206 348e 6280 08b8 2a5a e3bc 5873 05bd
00000060: 1fd3 23bd 2d2e 03bd 12d6 b9bc 2951 83bc
00000070: 4383 8bbc 5b35 7ab0 e084 3299 2b1a e5bc

encoder_lin.0.weight f4 [128, 288]
0.0046461294 0.003796679 -0.0004719069 0.001921469 -0.00036470784 0.0005362349 0.0008348862 -0.00082856097
0.00038976897 0.0048986124 0.008460059 0.008230057 -0.0078010065 -0.007780866 -0.007487276 -0.011672552
-0.0024027056 0.002723169 -5.8608926e-05 -7.034876e-07 -0.0003865261 -4.0954674e-06 0.00011858894 0.00032987673
1.8817645e-06 -0.0002578942 0.0016440821 0.0071512833 0.004421724 0.018924428 -0.0011101633 0.0050995154
0.0026027707 0.0005278927 0.002032521 -0.0045622685 0.0005927602 -0.003333876 0.014563313 0.019717824
0.002169193 0.010776825 0.012621623 0.012246546 0.005947489 -0.0013161591 -0.0023286436 -0.005253088
0.0074505946 0.00041831378 -0.00299289 0.001636305 0.0071621765 -0.00349501 0.02134923 0.0021471635
0.010801811 0.017291794 -0.005926951 -0.008292472 0.004846114 -0.004429955 -0.0021711367 0.0147614125
0.010779648 -0.0030478404 0.008075171 0.0044734934 -0.004922388 0.007186363 -0.0020181865 -0.0056263646
0.016453614 0.013497761 0.009601104 0.0012892379 0.00648852 0.008306687 0.0026575704 0.0143402
0.013694359 0.0015155151 -0.002702715 -0.002195053 0.007438821 -0.015287601 -0.0048085595 0.0041412297
-0.02204915 -0.0044036508 0.006886611 0.0010331033 0.0037096771 -0.007072735 -0.0011998649 -0.0005706522
0.00506905 0.002895998 0.00087362656 1.2230936e-05 -5.680684e-06 0.00010681588 2.2464637e-05 3.2421478e-05
0.00015392169 3.8239716e-05 3.889844e-05 7.7887e-05 0.025410037 0.00908664 0.024170509 0.011915783
0.014481043 0.003379965 0.014188287 0.008916302 -6.395122e-05 0.001122316 -0.00041611484 -0.0033906526
0.0030976492 -0.0077058077 -0.0027826568 0.0033342622 -0.009154164 0.00056801684 -4.2297062e-05 -0.00029061138
-0.0046672653 -0.007202004 -0.0097421 -0.008250737 0.0049032485 0.001243514 0.007173114 6.15858e-40
-6.12942e-40 -5.3986e-40 1.82959e-40 6.07204e-40 -2.52604e-40 1.735e-41 1.6747e-40 1.21465e-40
-8.289357e-06 2.6473657e-07 -2.215545e-07 -9.574595e-06 -4.687246e-06 -7.3703194e-07 -1.6412361e-05 2.2052573e-07
1.1061506e-07 -0.003400341 -0.002819314 0.0011179551 0.012709461 0.0027564988 -0.0001846102 -0.00048970105
0.011156503 0.002793513 0.0068597957 0.015139332 0.026260639 0.01565579 0.021299474 0.019755332
0.0010488037 0.006423999 0.010402952 -0.0010218103 0.002295664 -0.0023553385 0.002108636 0.005431922
0.008652752 0.0014589181 0.003612338 -0.0013791311 -1.3403578e-31 -5.313939e-32 2.925664e-32 -1.4024438e-31
-7.445121e-32 8.279469e-33 -1.0595012e-31 8.169485e-33 6.995029e-33 1.7678121e-07 3.6090657e-07 2.3339148e-07
-5.626143e-07 6.319655e-07 7.5105156e-08 3.1268232e-07 1.405887e-08 4.839802e-08 0.0031025477 0.019743338
0.004335448 0.002643724 0.004950939 0.016071688 0.0029051905 -0.0041960655 0.018325899 0.0038101166
0.0031613326 0.0022635793 -0.0006052947 -0.0019113639 -0.0056067794 0.0013171574 -0.0043116366 0.00016965606
0.011063036 0.007985526 0.018025056 0.015507638 0.0068412586 0.0051299985 0.016425021 0.007773289
0.009388342 0.0014514191 0.0019270238 0.0012621427 0.00040241692 0.0010837242 0.0017321528 -2.6318885e-05
0.0008626239 0.0007788203 -0.0008364537 0.00027888807 0.018999835 -0.00037819735 0.0033670175 0.013626284
0.001147662 -0.00013814034 0.011644059 0.016067982 0.005997531 0.015252402 -0.0032963108 0.005374432
0.010015956 0.00023212747 -0.006782461 0.008659907 0.002380885 0.0053912196 0.008245225 0.0033829282
00000000: 8f3e 983b b4d1 783b 466a f7b9 cdd9 fb3a
00000010: 4236 bfb9 1d92 0c3a 44dc 5a3a c933 59ba
00000020: e859 cc39 8a84 a03b 0f9c 0a3c 5cd7 063c
00000030: 969f ffbb a3f6 febb d357 f5bb 3b3e 3fbc
00000040: b676 1dbb 3277 323b dbd2 75b8 4dd7 3cb5
00000050: a8a6 cab9 cc6b 89b6 f4b2 f838 4ef3 ac39
00000060: f090 fc35 f935 87b9 3e7e d73a 5055 ea3b
00000070: 1ce4 903b 6707 9b3c e682 91ba d619 a73b
00000080: 3f93 2a3b 4862 0a3a 0b34 053b 157f 95bb
00000090: 7763 1b3a 287d 5abb f69a 6e3c 4687 a13c
000000a0: 0529 0e3b 4891 303c edca 4e3c bda5 483c
000000b0: 27e3 c23b f982 acba 289c 18bb 1922 acbb
000000c0: 1e24 f43b 2051 db39 5d24 44bb 4979 d63a
000000d0: b1b0 ea3b 8a0c 65bb 95e4 ae3c 6db7 0c3b
000000e0: 14fa 303c 85a7 8d3c de36 c2bb 26dd 07bc
000000f0: 27cc 9e3b 2829 91bb a149 0ebb dad9 713c
00000100: 1f9d 303c 47be 47bb b94d 043c 6296 923b
00000110: fc4b a1bb 957b eb3b 8d43 04bb 5e5d b8bb
00000120: bbc9 863c b725 5d3c f34d 1d3c a5fb a83a
00000130: a79d d43b c518 083c a22a 2e3b 29f3 6a3c
00000140: 4e5e 603c 40a4 c63a 0920 31bb e1da 0fbb
00000150: 5ac1 f33b d978 7abc 1f91 9dbb 27b3 873b
00000160: 6ba0 b4bc 804c 90bb 15a9 e13b 3269 873a
00000170: 0e1e 733b 67c2 e7bb c944 9dba d297 15ba
00000180: 461a a63b c9ca 3d3b 1604 653a 7833 4d37
00000190: b49c beb6 5702 e038 7172 bc37 4cfc 0738
000001a0: 0a66 2139 9563 2038 e226 2338 4457 a338
000001b0: b628 d03c 21e0 143c 3b01 c63c 6b3a 433c
000001c0: e641 6d3c 6782 5d3b fd75 683c ae15 123c
000001d0: 8d1d 86b8 ad1a 933a fd29 dab9 b635 5ebb
000001e0: ee01 4b3b 0081 fcbb 3c5d 36bb a383 5a3b
000001f0: 59fb 15bc f7e6 143a 2068 31b8 335d 98b9
00000200: dcef 98bb cafe ebbb 549d 1fbc 192e 07bc
00000210: 6eab a03b 68fd a23a 710c eb3b c3b4 0600
00000220: a2ac 0680 e9e0 0580 04fe 0100 a39c 0600
00000230: 28c0 0280 5d30 0000 d7d2 0100 9852 0100
00000240: 8412 0bb7 1e21 8e34 70e4 6db4 93a2 20b7
00000250: 2347 9db6 73d8 45b5 47ad 89b7 a7c9 6c34
00000260: 468b ed33 41d8 5ebb 3dc4 38bb 5988 923a
00000270: 583b 503c 60a6 343b ec93 41b9 485f 00ba
00000280: c4c9 363c 5f13 373b 23c8 e03b f60a 783c
00000290: 8d20 d73c 9240 803c 3c7c ae3c efd5 a13c
000002a0: 0378 893a 6980 d23b 2571 2a3c 44ee 85ba
000002b0: da72 163b 065c 1abb 0b31 0a3b 44fe b13b
000002c0: 46c4 0d3c 2b39 bf3a fabc 6c3b f6c3 b4ba
000002d0: 07fd 2d8c 2ff5 898b bfe8 170b 300c 368c
000002e0: 5149 c18b 35f5 2b0a f787 098c 6fac 290a
000002f0: f447 110a 40d1 3d34 9fc2 c134 299a 7a34
00000300: 8f06 17b5 57a4 2935 7f49 a133 bbde a734
00000310: 9087 7132 30de 4f33 1d54 4b3b c8bc a13c
00000320: 6010 8e3b 5442 2d3b 7d3b a23b c6a8 833c
00000330: 0265 3e3b 267f 89bb 3220 963c 26b3 793b
00000340: 5c2e 4f3b 8f58 143b a4ac 1eba bb86 faba
00000350: 13b9 b7bb 78a4 ac3a a148 8dbb b4e5 3139
00000360: bc41 353c b9d5 023c 48a9 933c c013 7e3c
00000370: a32c e03b 8c19 a83b c48d 863c 13b7 fe3b
00000380: 8fd1 193c 8b3d be3a 3094 fc3a 7b6e a53a
00000390: 7cfb d239 c00b 8e3a 6709 e33a 60c7 dcb7
000003a0: b621 623a bf29 4c3a 7545 5bba b937 9239
000003b0: 8ba5 9b3c ca48 c6b9 2ea9 5c3b c740 5f3c
000003c0: 266d 963a c4d9 10b9 b9c6 3e3c 00a1 833c
000003d0: f086 c43b 36e5 793c eb06 58bb 011c b03b
000003e0: f719 243c 3e67 7339 683f debb 48e2 0d3c
000003f0: 9f08 1c3b d4a8 b03b fb16 073c 1eb4 5d3b

encoder_lin.0.bias f4 [128]
-0.00041746988 -0.00033733156 -0.017312806 0.0038212729 -0.00062791415 -0.02382053 -3.9625583e-09 -0.0010145354
-0.00711084 -0.006829058 -0.00014810837 -0.015659843 -0.0015471013 0.016834732 0.007783502 0.0059515415
-0.018289449 -9.270688e-05 -0.036512364 -0.018485354 -0.00043143058 -0.008936216 -8.3785864e-07 -7.928647e-05
-0.011019375 -0.018730389 -0.022608876 -0.0059565585 -8.126013e-06 -0.03477876 -0.0014327877 -0.019583268
4.902405e-07 -0.016282119 -0.00599631 -1.0015749e-16 -0.00013461651 -0.02640067 -0.020804476 -0.02757389
-0.023214119 0.0051368503 -0.018342555 -0.0022747838 -0.0018379986 -0.025093364 -0.065998964 -0.020627536
-0.00015092947 -0.011342479 -0.00047687968 -0.0001969539 -4.7210213e-12 -0.024390167 -5.5988206e-05 -0.067658566
-0.024857031 -0.020466585 -0.0045711924 -0.0043864716 -0.004689013 -0.035187747 -1.6489589e-10 -0.038655825
-8.155102e-05 -5.172816e-07 -1.807957e-06 0.010297209 -0.010639263 -0.024051026 0.0019240452 -2.4195722e-22
-0.017188862 -0.012489932 -0.0026099894 -0.01530053 -0.024181781 -0.027775861 -0.030221844 -0.029718168
-0.049217403 -5.098707e-05 -0.015122323 -0.026614094 -0.008199138 -0.0024727809 -1.0612599e-05 -0.031408746
-0.022918465 -0.025213823 -0.023284232 -0.0051922966 -0.024785524 -0.0023763215 0.0018302696 -0.003568831
-0.0032218816 -0.0027140377 -0.002642521 -0.03507098 -6.9785093e-09 -6.1373757e-06 -0.009828684 -3.9639845e-12
-0.06474548 -0.025843255 -0.029734638 -0.010755277 -0.017145358 -0.00041413013 -0.020794746 -0.013381405
-0.006344942 -1.0283626e-08 -0.03134113 0.007687029 -0.00010920013 -0.054044846 -0.0014131702 -0.006892532
-0.022731919 -0.0014406503 -1.44501155e-05 -0.007677647 -5.93727e-12 -0.022084257 -0.023437027 0.009838536
00000000: dcdf dab9 e0db b0b9 96d3 8dbc 526e 7a3b
00000010: 9b9a 24ba 4623 c3bc 0827 88b1 29fa 84ba
00000020: 0d02 e9bb 4ac6 dfbb 8a4d 1bb9 1249 80bc
00000030: 1bc8 caba fee8 893c bf0c ff3b 2605 c33b
00000040: c1d3 95bc a16b c2b8 fd8d 15bd 996e 97bc
00000050: a231 e2b9 3569 12bc 35e9 60b5 9946 a6b8
00000060: 9c8a 34bc 7970 99bc 4036 b9bc 3c2f c3bb
00000070: f654 08b7 2c74 0ebd 61cc bbba 176d a0bc
00000080: 1299 0335 1462 85bc b27c c4bb 8cf2 e6a4
00000090: d827 0db9 3846 d8bc 266e aabc a3e2 e1bc
000000a0: 892b bebc 0653 a83b 2043 96bc 8a14 15bb
000000b0: 00e9 f0ba 9990 cdbc 772a 87bd 14fb a8bc
000000c0: d242 1eb9 ced5 39bc b505 fab9 6985 4eb9
000000d0: 2e1b a6ac e3cd c7bc e1d4 6ab8 9390 8abd
000000e0: f9a0 cbbc 8aa9 a7bc f1c9 95bb 64bc 8fbb
000000f0: 4ba6 99bb 0721 10bd 114e 35af 9255 1ebd
00000100: 5f06 abb8 52db 0ab5 eea8 f2b5 a0b5 283c
00000110: 4e50 2ebc a806 c5bc 3e30 fc3a 1141 929b
00000120: a8cf 8cbc 92a2 4cbc 5b0c 2bbb 13af 7abc
00000130: df18 c6bc 348a e3bc cd93 f7bc 8473 f3bc
00000140: 3098 49bd f3da 55b8 9fc3 77bc cd05 dabc
00000150: ad55 06bc 610e 22bb c40c 32b7 75a6 00bd
00000160: 81bf bbbc 388d cebc 93be bebc 2424 aabb
00000170: 030b cbbc 0fbc 1bbb a8e5 ef3a 0ce3 69bb
00000180: 3426 53bb ffdd 31bb 252e 2dbb 97a6 0fbd
00000190: 9ec7 efb1 a8ef cdb6 7d08 21bc 6678 8bac
000001a0: 4799 84bd 3cb5 d3bc 0e96 f3bc e736 30bc
000001b0: 6c74 8cbc 9b1f d9b9 be59 aabc ae3d 5bbc
000001c0: 3be9 cfbb deab 30b2 8f5f 00bd 79e3 fb3b
000001d0: 6002 e5b8 215e 5dbd 203a b9ba c0da e1bb
000001e0: 4a38 babc 34d4 bcba c66e 72b7 c594 fbbb
000001f0: 2de6 d0ac 0bea b4bc 02ff bfbc d031 213c

encoder_lin.2.weight f4 [2, 128]
-0.0036156408 -0.00016776929 -0.036798593 0.039100952 -0.00019217146 -0.07900849 -1.8403772e-06 0.06978998
0.021211464 -0.019312503 -0.00021122214 0.1612769 -0.00343201 -0.07657258 -0.05931658 0.028287701
-0.051488485 -0.00643144 -0.12635198 -0.08179427 -0.00011955263 -0.02487377 -1.0448307e-06 -0.000115566094
0.01143021 -0.061257232 0.08195402 0.010174697 1.918763e-05 0.15009584 -0.11934711 -0.06468506
7.769742e-08 -0.08908557 -0.015939945 2.0079068e-15 -0.0007186434 0.057637773 -0.027725257 -0.08775914
0.12683372 0.024156673 0.049573418 0.15796573 -0.00021145587 -0.0618476 -0.18077445 0.105174065
-0.00019683468 0.014993856 0.0008176018 -0.0026774136 8.441847e-12 -0.065476574 7.721904e-05 -0.1319122
0.16076472 -0.026806511 -0.0021570362 0.11092575 -0.014568032 0.096367195 -0.00010597746 -0.13969225
0.00020506076 3.6319263e-06 -2.0655084e-07 0.03432196 0.064387076 0.15658398 -0.134489 -1.706946e-07
0.088555604 0.005001458 0.0005886207 -0.102681324 0.14355415 -0.14724842 -0.083074346 -0.047872998
-0.13047996 3.244657e-05 -0.054433033 -0.06492206 0.027167035 -0.00066070876 7.566361e-05 -0.107046455
-0.08194435 0.15260577 -0.046601772 0.11323034 0.15264824 0.009252817 0.013911969 -0.018684637
0.0013115077 -0.011323006 -0.001412824 0.07798745 -6.392833e-09 -3.211973e-05 -0.011830825 6.709851e-13
0.02974899 0.056759566 -0.04864568 -0.10314846 0.13479185 0.00041463782 -0.048475087 -0.04661892
0.073689915 -5.550436e-09 -0.1257698 -0.12557371 0.00061569 -0.15492444 0.067752026 -0.018159775
-0.055082977 0.22403516 1.6802735e-05 -0.017088508 2.7279195e-12 -0.03975876 0.05827836 -0.14495048
-0.091315396 -0.0010977053 0.032335214 -0.08350675 -0.00088043103 -0.111584246 7.1354953e-06 0.2970538
-0.045670602 -0.06287367 -0.0007125555 -0.040834542 -0.0020240862 0.0951147 0.068060264 -0.05790492
-0.052114356 0.0059405835 0.13800795 0.038159456 -0.00031117516 -0.047812086 -2.654962e-07 -0.00025211938
-0.0071442407 -0.09137658 0.17220634 -0.028750926 2.7944436e-05 0.013490347 0.112508476 -0.07616926
-1.0879608e-06 0.060870957 -0.06431315 -3.5266697e-15 -0.00026543098 0.09977229 -0.06541644 0.08528404
0.031633705 -0.094723165 0.1023776 0.0060750977 0.000766882 -0.06121608 0.07557179 0.03778567
-0.000111946734 0.040802144 -0.006356104 -0.0023587344 -4.6948616e-13 -0.06270536 -0.00023845851 0.040578227
0.07774917 -0.063375175 -0.0068936604 -0.020046208 -0.009302989 0.00079720764 -2.2787093e-05 0.07651902
-0.0043628146 3.6591534e-06 8.051489e-07 -0.06514546 -0.039016616 0.062378105 -0.009242094 -5.6777196e-07
0.018225295 -4.394427e-05 -0.011891731 0.07161304 0.049186792 0.11333189 0.19748668 -0.0944625
0.052685402 -4.374602e-06 -0.120802045 0.19636191 -0.05604332 -0.0029518586 1.6377917e-05 0.108360864
-0.11937044 0.040425394 0.202109 -0.043916516 -0.07237304 -0.089765996 -0.0632271 -0.09970892
0.00019601182 -0.0038706372 -0.0051347204 0.14178059 -2.8400154e-10 1.50137e-05 0.001497805 1.8679825e-11
-0.1206092 0.09864914 -0.06414402 0.08039729 0.07550037 -0.00014113891 -0.09086139 0.023367556
0.286743 6.2993024e-09 0.08019536 0.012647396 -0.00017604066 0.040823262 0.30005896 0.0048350254
-0.060365308 -0.040759183 5.728772e-06 -0.030100606 7.708063e-12 -0.06736571 0.1115196 0.02482262
00000000: 63f4 6cbb 3aeb 2fb9 1fba 16bd 5228 203d
00000010: a281 49b9 34cf a1bd e102 f7b5 0dee 8e3d
00000020: aac3 ad3c 4135 9ebc 837b 5db9 c625 253e
00000030: 93eb 60bb 16d2 9cbd f1f5 72bd 9cbb e73c
00000040: 97e5 52bd d4be d2bb 6a62 01be c183 a7bd
00000050: 54b8 fab8 14c4 cbbc 1c3c 8cb5 135c f2b8
00000060: c745 3b3c dde8 7abd 82d7 a73d c6b3 263c
00000070: 1ff5 a037 b9b2 193e 426c f4bd 9a79 84bd
00000080: 9cda a633 7f72 b6bd 7d94 82bc 58af 1027
00000090: 5863 3cba 9615 6c3d 1420 e3bc 10bb b3bd
000000a0: b3e0 013e 37e4 c53c 7f0d 4b3d c5c1 213e
000000b0: 41ba 5db9 e953 7dbd f01c 39be 8065 d73d
000000c0: 6865 4eb9 caa8 753c 5454 563a 8c77 2fbb
000000d0: b382 142d 9518 86bd a8f0 a138 fe13 07be
000000e0: 829f 243e 5499 dbbc 105d 0dbb 0a2d e33d
000000f0: c1ae 6ebc 2a5c c53d 3740 deb8 7c0b 0fbe
00000100: 9405 5739 05bc 7336 43c8 5db4 2f95 0c3d
00000110: 5fdd 833d 8d57 203e 7cb7 09be 2d48 37b4
00000120: a45c b53d 45e3 a33b ab4d 1a3a 964a d2bd
00000130: dcff 123e 4ac8 16be e222 aabd 7a16 44bd
00000140: 8a9c 05be 3d17 0838 2cf5 5ebd dbf5 84bd
00000150: 678d de3c 6a33 2dba 97ad 9e38 2c3b dbbd
00000160: 70d2 a7bd b044 1c3e 80e1 3ebd 4fe5 e73d
00000170: d24f 1c3e 2199 173c 07ef 633c 8610 99bc
00000180: e5e6 ab3a 2184 39bc 822e b9ba e2b7 9f3d
00000190: f4a7 dbb1 4cb8 06b8 14d6 41bc 92dd 3c2b
000001a0: 27b4 f33c b87c 683d b140 47bd 803f d3bd
000001b0: e006 0a3e bf63 d939 d08d 46bd 7bf3 3ebd
000001c0: bdea 963d 27b6 beb1 ccc9 00be 6596 00be
000001d0: 4266 213a 83a4 1ebe 93c1 8a3d cfc3 94bc
000001e0: b09e 61bd 7969 653e 99f3 8c37 33fd 8bbc
000001f0: d4f5 3f2c 15da 22bd 4ab5 6e3d e66d 14be
00000200: 9103 bbbd e1e0 8fba ee71 043d 9605 abbd
00000210: bacc 66ba 4886 e4bd 706d ef36 7017 983e
00000220: 1911 3bbd e9c3 80bd caca 3aba 1f42 27bd
00000230: 88a6 04bb 7fcb c23d 2e63 8b3d b62d 6dbd
00000240: dd75 55bd 3aa9 c23b f551 0d3e 174d 1c3d
00000250: 3925 a3b9 9bd6 43bd 8589 8eb4 e42e 84b9
00000260: 3c1a eabb a523 bbbd dc56 303e 1087 ebbc
00000270: 386a ea37 9e06 5d3c d86a e63d a1fe 9bbd
00000280: 0c06 92b5 d353 793d 9db6 83bd 931f 7ea7
00000290: 8b29 8bb9 6a55 cc3d 0ef9 85bd 66a9 ae3d
000002a0: 5892 013d 38fe c1bd 59ab d13d 9d11 c73b
000002b0: 9408 493a b6bd 7abd 62c5 9a3d 26c5 1a3d
000002c0: f2c4 eab8 2620 273d dd46 d0bb ff94 1abb
000002d0: 0b26 04ab ab6b 80bd b80a 7ab9 5b35 263d
000002e0: f53a 9f3d d8ca 81bd 37e4 e1bb f237 a4bc
000002f0: 906b 18bc b3fb 503a e926 bfb7 01b6 9c3d
00000300: f1f5 8ebb c78f 7536 6921 5835 fc6a 85bd
00000310: e3cf 1fbd 2f80 7f3d 276c 17bc fe68 18b5
00000320: 374d 953c cd50 38b8 89d5 42bc dca9 923d
00000330: 1778 493d 8d1a e83d f339 4a3e 8e75 c1bd
00000340: a6cc 573d 8cc9 92b6 1067 f7bd 1913 493e
00000350: ae8d 65bd f873 41bb 4f63 8937 4dec dd3d
00000360: 7d78 f4bd 1995 253d a9f5 4e3e cee1 33bd
00000370: 5138 94bd 3cd7 b7bd 367d 81bd 3134 ccbd
00000380: 8688 4d39 84aa 7dbb 2841 a8bb ee2e 113e
00000390: aa21 9caf 5ae3 7b37 ff51 c43a 3a4f a42d
000003a0: f501 f7bd 8f08 ca3d f15d 83bd 56a7 a43d
000003b0: f09f 9a3d b0fe 13b9 8915 babd 516d bf3c
000003c0: facf 923e 4071 d831 773d a43d 0637 4f3c
000003d0: 8e97 38b9 4b36 273d 54a1 993e 226f 9e3b
000003e0: 9d41 77bd 1af3 26bd c739 c036 8c95 f6bc
000003f0: 089a 072d 09f7 89bd 6364 e43d cf58 cb3c

encoder_lin.2.bias f4 [2]
0.035013366 0.015064655
00000000: 2d6a 0f3d bed1 763c

28 f4 [16, 8, 3, 3]
0.0984498 0.025915604 -0.015234918 0.040150974 -0.108265474 -0.07451139 0.11795381 -0.12687154
0.11861189 0.32172942 0.43478808 -0.010556054 0.33643633 0.74288344 0.015138515 0.10011757
0.18181571 0.110330485 0.542351 0.2724467 0.6763729 0.6841106 -0.10555146 0.28899232
0.52603537 -0.06601168 0.60595953 0.24928704 0.7788649 -0.0070113507 0.5840936 1.324196
0.26116523 0.33328712 0.84596944 -0.20475622 0.1778837 0.07934908 -0.1325601 -0.46236917
-0.61462903 -0.47200823 -0.25726905 -0.49528104 -0.29140067 0.3902044 -0.3361006 0.26043636
0.22570477 -0.9667729 -0.12165807 0.30353978 -0.5653618 -0.2853548 2.394389e-15 -1.1174131e-16
-2.7336479e-15 1.0185494e-15 -6.153327e-17 2.3826052e-16 3.1003314e-15 5.062999e-16 -2.6289793e-16 -0.1351398
0.1104368 -0.307985 -0.09818042 -0.4773731 -0.2081862 -0.026790217 -0.22024058 -0.04592061
-0.8184318 -1.1894248 -0.61395097 -1.2406161 -2.018884 -1.4506513 -0.6584118 -1.4813246
-0.60680574 -0.23389576 -0.24996963 0.35816404 -0.11363416 0.11766842 0.30319375 0.078688465
-0.5916604 0.2345652 0.29681486 -0.5032213 0.5144959 0.47619554 -0.5034308 1.1044155
0.55701894 -0.29819694 1.4947634 -1.38531 0.8177572 1.0485624 -1.2181414 0.7993847
1.1257089 -1.4909854 0.6549398 1.0365618 -0.10438112 -0.38617116 -0.86380166 -1.1442944
-1.3514794 -0.6838654 -0.17274731 -0.15158595 -0.568321 -0.62448305 1.336741 0.3047871
0.10058835 1.4739683 -0.0016251364 -0.9102455 0.99051404 1.0886148 -7.0673964e-15 -8.134384e-15
9.377869e-15 6.4495524e-15 6.6827723e-15 2.7354194e-14 7.175263e-15 2.543101e-14 1.5478787e-14 -0.7096671
-1.1542574 -0.7129088 -0.9293756 -1.9862777 -1.0378652 -0.28282505 -1.4159192 -0.6221712
-0.026195573 0.08447225 -0.10342186 0.13979053 0.02854099 -0.17618822 0.10079138 -0.09401308
0.11164811 0.25940454 0.1938321 0.07404997 0.0032172995 0.33217975 0.24243684 -0.17129365
0.28380415 0.23924692 0.6357709 0.19614433 0.29164717 0.30672556 -0.032117598 0.03311011
0.38952997 0.002706299 0.40708685 0.6788323 0.12182321 0.34234756 0.8386194 0.69305044
0.7787759 0.5989708 0.50197905 -0.004330425 0.03215753 -0.019161828 0.073953345 -0.5310605
-0.3938867 -0.31985402 -0.15413181 -0.33027616 -0.33209375 -0.4180763 0.07261132 0.90845054
-0.72501564 -0.4613889 0.45093748 -0.5030689 -0.6979433 0.55924803 8.222434e-16 -4.7828044e-16
-5.2520036e-15 4.761334e-16 2.8259499e-15 2.8955425e-15 -3.2667829e-15 2.8506201e-15 -3.685717e-15 -3.7473306e-05
-0.21145153 -0.21752852 -0.0016106535 -0.34491035 -0.24191134 0.0035536543 -0.18699166 0.06457384
-0.52390224 -0.7489454 -0.43642408 -0.8999195 -1.1536424 -1.2356092 -0.5461984 -1.0684105
-0.62151337 0.40813604 0.012484986 -1.1804217 0.66911346 0.04687195 -0.7522032 0.80795735
0.44164547 -0.50045174 -0.35496542 0.029677521 0.48144823 -0.66922164 -0.54852647 -0.09858417
-0.6632747 -0.52333796 -0.15495096 -0.06914863 -0.11570773 -0.60072076 0.28084636 -0.18238346
-0.2976659 0.82040584 -0.045134395 -0.2076429 -0.76954055 -0.9322461 -0.31224144 -0.33577144
00000000: 0ca0 c93d f64c d43c e19b 79bc 5975 243d
00000010: 4aba ddbd 6d99 98bd c491 f13d 9dea 01be
00000020: caea f23d b8b9 a43e 8b9c de3e 4df3 2cbc
00000030: 6241 ac3e 9c2d 3e3f 8907 783c 710a cd3d
00000040: e62d 3a3e f3f4 e13d 84d7 0a3f 227e 8b3e
00000050: c626 2d3f df21 2f3f 5d2b d8bd cdf6 933e
00000060: 41aa 063f 2231 87bd 2a20 1b3f 1a45 7f3e
00000070: b163 473f 79bf e5bb 2887 153f 417f a93f
00000080: 73b7 853e 9ca4 aa3e 7491 583f 9dab 51be
00000090: 2527 363e c581 a23d d6bd 07be a7bb ecbe
000000a0: 5458 1dbf 10ab f1be c5b8 83be 7a95 fdbe
000000b0: 7832 95be dfc8 c73e 6115 acbe ea57 853e
000000c0: 271f 673e 6e7e 77bf de27 f9bd 9169 9b3e
000000d0: 8dbb 10bf 061a 92be ae88 2c27 37d4 00a5
000000e0: e7fa 44a7 d7c9 9226 d5e2 8da4 0c59 8925
000000f0: 0567 5f27 57ee 1126 e38c 97a5 1662 0abe
00000100: b02c e23d 36b0 9dbe d112 c9bd 3f6a f4be
00000110: c32e 55be 2877 dbbc bf86 61be 4017 3cbd
00000120: bf84 51bf 123f 98bf e42b 1dbf 82cc 9ebf
00000130: 6535 01c0 f1ae b9bf ad8d 28bf 0b9c bdbf
00000140: 9f57 1bbf 5f82 6fbe 0af8 7fbe 4761 b73e
00000150: 07b9 e8bd 24fc f03d 363c 9b3e 6b27 a13d
00000160: 0e77 17bf dc31 703e 1ef8 973e 1cd3 00bf
00000170: 01b6 033f e7cf f33e d7e0 00bf 7d5d 8d3f
00000180: cb98 0e3f 45ad 98be 6854 bf3f d751 b1bf
00000190: 8958 513f 4b37 863f 0fec 9bbf 7aa4 4c3f
000001a0: 3b17 903f 9cd8 bebf 22aa 273f 0fae 843f
000001b0: c5c5 d5bd 3ab8 c5be 1b22 5dbf 3d78 92bf
000001c0: 47fd acbf ce11 2fbf ace4 30be 5939 1bbe
000001d0: 7c7d 11bf 1fde 1fbf 541a ab3f 0e0d 9c3e
000001e0: 4401 ce3d feaa bc3f 8702 d5ba d905 69bf
000001f0: 5492 7d3f bb57 8b3f 3aa1 fea7 3a89 12a8
00000200: caef 2828 9f5e e827 b2c5 f027 7a62 f628
00000210: 0f42 0128 eb0f e528 a76b 8b28 beac 35bf
00000220: b5be 93bf 3181 36bf 8feb 6dbf 593e febf
00000230: c4d8 84bf 72ce 90be d73c b5bf 9d46 1fbf
00000240: 1998 d6bc c9ff ac3d d7ce d3bd 4025 0f3e
00000250: cbce e93c af6a 34be b66b ce3d ee89 c0bd
00000260: c4a7 e43d acd0 843e ec7b 463e 83a7 973d
00000270: 54d9 523b 7713 aa3e 5d41 783e 9a67 2fbe
00000280: c74e 913e 25fd 743e e2c1 223f 0fda 483e
00000290: c752 953e 220b 9d3e be8d 03bd 779e 073d
000002a0: 7970 c73e 2a5c 313b b06d d03e f4c7 2d3f
000002b0: 727e f93d 2e48 af3e c3af 563f c16b 313f
000002c0: db5d 473f 2656 193f b381 003f 3de6 8dbb
000002d0: 9db7 033d 44f9 9cbc da74 973d 95f3 07bf
000002e0: 84ab c9be e8c3 a3be bbd4 1dbe f519 a9be
000002f0: 3108 aabe 190e d6be 3eb5 943d 3790 683f
00000300: a09a 39bf 2a3b ecbe 47e1 e63e 20c9 00bf
00000310: 69ac 32bf e12a 0f3f dbfe 6c26 deda 09a6
00000320: 2f39 bda7 723c 0926 93a1 4b27 55a5 5027
00000330: 8265 6ba7 a968 4d27 bdca 84a7 a82c 1db8
00000340: c086 58be ccbf 5ebe 901c d3ba 1798 b0be
00000350: 9bb7 77be 6de4 683b be7a 3fbe 4a3f 843d
00000360: 751e 06bf e3ba 3fbf fa72 dfbe 2061 66bf
00000370: 8eaa 93bf 7128 9ebf a9d3 0bbf adc1 88bf
00000380: 801b 1fbf 35f7 d03e d48d 4c3c 0f18 97bf
00000390: 054b 2b3f cdfc 3f3d 6490 40bf 4bd6 4e3f
000003a0: 5b1f e23e 9b1d 00bf 07be b5be 461e f33c
000003b0: 6280 f63e 1c52 2bbf 3b6c 0cbf 7fe6 c9bd
000003c0: 5fcc 29bf 7af9 05bf 77ab 1ebe cc9d 8dbd
000003d0: 2df8 ecbd d6c8 19bf 18cb 8f3e bbc2 3abe
000003e0: aa67 98be 1e06 523f d8de 38bd 57a0 54be
000003f0: 9c00 45bf aea7 6ebf 1cde 9fbe 3cea abbe

29 f4 [16]
-0.41651323 -0.3608394 -0.31647676 0.34286574 -0.33884203 0.4079085 -0.19217193 -0.34949243
0.23862445 -0.5249211 0.4167086 0.048111904 0.97326326 -0.06930194 0.0321261 -0.012299806
00000000: 3941 d5be f1bf b8be 3e09 a2be 198c af3e
00000010: b47c adbe 62d9 d03e b8c8 44be acf0 b2be
00000020: f859 743e 3b61 06bf d45a d53e fd10 453d
00000030: c827 793f 2dee 8dbd a896 033d 2085 49bc
