models/encoder.onnx (onnx, 173773 bytes, 10 tensors)

encoder_cnn.0.weight f4 [8, 1, 3, 3]
-0.00017909604 0.055804554 -0.013058387 0.016081655 -0.10987326 0.0417333 -0.012644441 0.043951493
-0.028792161 -0.02445745 -0.025572853 0.0026545234 -0.04828741 -0.052847315 -0.0060781185 -0.02803586
-0.029373314 0.030120695 0.0024380144 0.0040209484 0.011572823 0.026061518 0.022704955 0.009084919
0.016674446 0.019508196 0.015133889 -0.008623831 -0.033548597 -0.039373945 -0.018650185 -0.06497751
-0.054776695 -0.014770376 -0.055019744 -0.04524817 -0.006947502 0.022239087 -0.0062793107 0.026831523
0.04125514 -0.008681763 -0.04200539 -0.08816888 0.0047961385 0.032723572 0.06941265 0.018523203
0.06946823 0.103521556 0.03811044 0.049902495 0.056564715 0.015653376 -2.9256127e-18 -2.0992858e-18
-1.9743147e-18 -2.867318e-18 -2.8470241e-18 -1.8178326e-18 -3.2082111e-18 -1.5145488e-18 -3.3018932e-18 0.042243432
0.00094387576 -0.020050475 -0.108353026 0.047479045 0.015326195 0.05396848 -0.04161269 -0.0072886087
00000000: bacb 3bb9 5193 643d d8f2 55bc adbd 833c
00000010: 3b05 e1bd 89f0 2a3d a12a 4fbc 7b06 343d
00000020: 8add ebbc fd5a c8bc 297e d1bc 83f7 2d3b
00000030: 05c9 45bd 6d76 58bd f42a c7bb 76ab e5bc
00000040: 4ea0 f0bc adbf f63c 18c7 1f3b 29c2 833b
00000050: f09b 3d3c f77e d53c beff b93c e9d8 143c
00000060: d998 883c a7cf 9f3c 22f4 773c f84a 0dbc
00000070: 416a 09bd 9346 21bd 46c8 98bc ee12 85bd
00000080: 875d 60bd 72ff 71bc 625c 61bd 2556 39bd
00000090: dfa7 e3bb bf2e b63c adc2 cdbb c8cd db3c
000000a0: 26fb 283d f43d 0ebc d80d 2cbd e391 b4bd
000000b0: ed28 9d3b 2709 063d 3828 8e3d f9bd 973c
000000c0: 5c45 8e3d 1c03 d43d b119 1c3d 8f66 4c3d
000000d0: 67b0 673d 823b 803c 43df 57a2 63e6 1aa2
000000e0: c0ad 11a2 1b92 53a2 c412 52a2 e321 06a2
000000f0: 65b9 6ca2 0982 dfa1 00a3 73a2 7307 2d3d
00000100: 6e6e 773a e540 a4bc 31e8 ddbd 6379 423d
00000110: b91a 7b3c 0e0e 5d3d 1172 2abd 48d5 eebb

encoder_cnn.0.bias f4 [8]
0.0016744836 0.10551968 0.06623495 0.1563537 0.004181394 -0.15370089 -2.9925525e-18 -0.002261629
00000000: 597a db3a b41a d83d 31a6 873d 2f1b 203e
00000010: 1304 893b c463 1dbe b8cf 5ca2 d737 14bb

encoder_cnn.5.weight f4 [32, 16, 3, 3]
0.00020099919 0.001388445 -0.0020490193 0.00083681196 0.0044188057 -0.0025715241 0.002143565 0.004059901
-0.0013343317 -0.0004442714 -0.0028767472 0.003526687 -0.0008686234 -0.003484625 0.0037544835 -0.0012261459
-0.0030091424 0.0014775845 0.00016229566 0.001126903 -0.0021246497 0.0007381716 0.003948099 -0.002709889
0.0019398952 0.0035675354 -0.0014349789 -0.001491145 0.0010354791 0.002711485 -0.0022812216 0.0018913363
0.005154741 -0.002999307 0.003094108 0.0043687103 0.0011999188 0.0003362808 -0.004030542 0.0023232123
0.001260807 -0.0029156117 0.0023949295 0.0009377003 -0.003049132 -0.0007219059 -0.0049413526 0.0061507146
-0.002143943 -0.005106807 0.0031291635 -0.0013407482 -0.0017622933 0.0009794132 0.0012441194 0.00039212778
-0.0037667586 0.002293951 0.0010180792 -0.002573259 0.002303812 0.00065976527 -0.003281821 0.0015671055
-0.0016726156 -0.0024008965 0.0030932804 -0.00072005636 -0.0009348649 0.0028211926 -0.00069337373 -0.0024164447
-0.0043058787 -0.0016151225 0.002797531 -0.006303608 0.0026390676 0.00054755725 -0.004548222 0.0032395
0.002022304 -0.00017750022 -0.0005927526 -0.00011098597 0.0004454952 -0.00072100636 0.0018545614 0.0010941008
-0.0006940699 0.0020892983 -0.003127744 -0.0012625912 0.0009615983 -0.0047783614 0.00029768364 0.002096543
-0.0050424146 0.0006775309 0.0020007023 0.0008946612 -0.0031160903 -0.0028271358 0.002790816 -0.0026682783
-0.0019537034 0.002567438 -0.0014159064 -0.00083689584 -0.00040440107 -0.0035396726 0.0050746207 -0.000440506
-0.0037610345 0.005572723 -0.00078571413 -0.0030815566 0.0019354407 -0.0011541365 0.00016527921 0.0005362143
-0.0017833314 0.0017605337 -0.0011410675 -0.0008957109 0.0013711526 -0.0005830157 0.00065461086 -0.0011427677
-0.0013823551 0.0014683538 -0.00068767887 -0.00048320176 0.0014023416 -0.00074793934 -0.0017211284 0.0015298426
-0.0009663646 -0.002413772 0.002752233 -0.0002872625 -0.0012803259 0.002649014 -0.0006291899 -0.003000136
-6.034773e-34 -1.7040877e-25 -7.5872334e-26 5.366378e-34 -4.459657e-29 -2.1186258e-33 1.8630204e-34 1.5794664e-33
-5.049333e-34 1.7082927e-34 1.037976e-34 -1.6572869e-33 -2.5057065e-35 -1.0030545e-33 2.708335e-33 7.0584377e-34
1.6111303e-31 -1.8290435e-27 -4.36364e-34 3.0575334e-23 1.0261288e-23 -3.398286e-35 4.0622423e-27 -9.588098e-30
4.614862e-34 -1.7830677e-33 -5.6025723e-34 3.6081633e-35 6.559174e-34 5.3373835e-34 1.4042612e-34 -6.5589963e-34
8.864737e-34 -3.6737027e-33 -3.1454908e-31 4.330714e-29 -6.7865624e-34 8.416706e-20 1.1738878e-19 -1.3517987e-33
5.272196e-27 -1.1055484e-31 -2.7641754e-34 1.0468877e-33 -1.3490305e-33 -4.875469e-34 6.2529348e-34 3.148619e-33
-2.6994945e-34 4.876902e-33 4.22703e-29 7.106535e-35 -3.7849543e-28 -3.0650642e-29 9.621896e-34 1.0829501e-20
8.683384e-21 1.6841661e-34 -2.8183004e-28 -1.6867097e-33 -1.9738903e-35 -1.195301e-33 1.0928007e-33 6.683754e-34
1.0582778e-21 -2.9956923e-23 1.0556667e-33 7.199887e-33 1.6279258e-33 -1.2939554e-34 1.3312005e-33 1.0555935e-33
1.8940155e-34 -1.4404171e-33 3.504033e-33 -2.8473165e-37 1.7036714e-32 5.104587e-28 1.6082046e-25 3.3952736e-25
2.6086301e-25 3.761772e-34 2.0656783e-34 -1.2607659e-34 1.5662327e-34 -3.1252666e-34 1.6549107e-33 4.572779e-34
-8.629927e-33 7.1323156e-29 6.589437e-35 -9.056473e-34 1.1798636e-33 -7.328954e-34 -1.5232548e-33 -4.3617743e-33
-3.005917e-31 1.4239918e-25 1.8370708e-25 -7.909627e-34 2.7186107e-30 1.1646057e-32 2.0581065e-34 -2.316994e-35
-2.7617073e-34 4.242351e-34 -1.1572439e-33 -1.5027628e-34 3.6662514e-34 8.3848844e-35 1.9123511e-33 2.0123775e-34
00000000: 4fc3 5239 7cfc b53a d748 06bb 805d 5b3a
00000010: a1cb 903b 0487 28bb 0e7b 0c3b eb08 853b
00000020: bee4 aeba 19ed e8b9 cf87 3cbb fd1f 673b
00000030: 54b4 63ba 4e5e 64bb c80d 763b a1b6 a0ba
00000040: 0835 45bb 82ab c13a e92d 2a39 97b4 933a
00000050: b53d 0bbb dc81 413a 0e5f 813b 6598 31bb
00000060: 1544 fe3a 50cd 693b e715 bcba 8672 c3ba
00000070: eab8 873a 2bb3 313b 8c80 15bb b7e6 f73a
00000080: 1ae9 a83b 0590 44bb 85c6 4a3b 6627 8f3b
00000090: 9846 9d3a d84e b039 a312 84bb 0941 183b
000000a0: aa41 a53a d913 3fbb 40f4 1c3b 00d0 753a
000000b0: f2d3 47bb 493e 3dba 12eb a1bb ef8b c93b
000000c0: 6581 0cbb 0157 a7bb a712 4d3b 0bbc afba
000000d0: c0fc e6ba a75f 803a b811 a33a 8096 cd39
000000e0: b9db 76bb 1d56 163b 1271 853a 1fa4 28bb
000000f0: 8dfb 163b 19f4 2c3a d213 57bb 5667 cd3a
00000100: ab3b dbba 5c58 1dbb a2b8 4a3b 2ac2 3cba
00000110: b911 75ba c2e3 383b 86c3 35ba 375d 1ebb
00000120: 5418 8dbb 85b2 d3ba c856 373b 7f8e cebb
00000130: 35f4 2c3b f289 0f3a 4009 95bb cb4d 543b
00000140: a288 043b 5a1f 3ab9 f462 1bba 24c1 e8b8
00000150: 5b91 e939 eb01 3dba c114 f33a ee67 8f3a
00000160: 3ef2 35ba 9cec 083b d6fa 4cbb 887d a5ba
00000170: c513 7c3a cd93 9cbb 6c12 9c39 2866 093b
00000180: d73a a5bb 549c 313a 371e 033b b287 6a3a
00000190: 5237 4cbb 7847 39bb 1fe6 363b 48de 2ebb
000001a0: b409 00bb 7642 283b ef95 b9ba 2163 5bba
000001b0: cb05 d4b9 daf9 67bb 0149 a63b b7f3 e6b9
000001c0: b07b 76bb 649b b63b 62f8 4dba f1f3 49bb
000001d0: 9dae fd3a 6546 97ba cd4e 2d39 bc90 0c3a
000001e0: acbe e9ba b5c1 e63a df8f 95ba 24ce 6aba
000001f0: 3fb8 b33a 85d5 18ba 319a 2b3a ecc8 95ba
00000200: 2430 b5ba c775 c03a 5945 34ba 3e56 fdb9
00000210: c7ce b73a 5c11 44ba 7c97 e1ba 0085 c83a
00000220: a153 7dba 6030 1ebb cf5e 343b b89b 96b9
00000230: 9cd0 a7ba 149b 2d3b 38f0 24ba ee9d 44bb
00000240: 2c8a 4888 b2f4 5296 ced9 bb95 1854 3208
00000250: a821 6290 3002 3089 4da3 7707 8937 0309
00000260: faca 2788 3012 6307 7ef8 0907 98ae 0989
00000270: e939 0586 38a9 a688 eaff 6009 8c8e 6a08
00000280: fd22 510c 69e9 1093 be01 1188 6eda 131a
00000290: 707b 4619 12af 3486 08ec a013 4078 428f
000002a0: e75a 1908 a821 1489 6a2d 3a88 c6d7 3f06
000002b0: 48f7 5908 705d 3108 88a8 3a07 c5f5 5988
000002c0: 6c4a 9308 8299 9889 6e27 cc8c e297 5b10
000002d0: b085 6188 debb c61f 9596 0a20 289b e088
000002e0: 6bda d013 2682 0f8c 02b6 b787 aef1 ad08
000002f0: 6925 e088 e703 2288 16ca 4f08 dcc9 8209
00000300: 8569 b387 1e94 ca09 fd55 5610 92ec bc06
00000310: 65e6 ef91 cf6a 1b90 05df 9f08 4190 4c1e
00000320: 4506 241e 34dd 5f07 8aa1 b291 5920 0c89
00000330: 68e6 d185 7b9a c688 9a92 b508 171b 5e08
00000340: 24ec 9f1c e0dc 109a 1867 af08 2a89 150a
00000350: 273e 0709 05ff 2b87 022f dd08 fb63 af08
00000360: 02c2 7b07 9154 ef88 458d 9109 40c7 c182
00000370: 5beb b00a 54c5 2112 0a16 4716 4228 d216
00000380: 6577 a116 3c03 fa07 b249 8907 a495 2787
00000390: 2330 5007 a8b5 cf87 0f7c 0909 e7f4 1708
000003a0: 903c 338a 60d3 b410 622d af06 fa79 9688
000003b0: d909 c408 d88b 7388 1818 fd88 572e b589
000003c0: 5d18 c38c 1a48 3016 196b 6316 d56b 8388
000003d0: 568f 5c0e 0fe1 710a dec8 8807 9462 f685
000003e0: 048c b787 eef9 0c08 b647 c088 5ec0 4787
000003f0: 09aa f307 91e8 de06 36df 1e09 d4be 8507

encoder_cnn.5.bias f4 [32]
-0.009044597 -9.602427e-11 -2.3427617e-07 -0.0030625204 -0.055263534 -0.002319942 0.0013798862 -0.030750167
-0.015550932 -3.549065e-06 -0.018363182 -0.010164852 -0.0033362494 -8.689635e-33 -4.698879e-16 -1.02952084e-16
-8.648685e-06 -0.030297218 -0.0023100195 -3.604622e-05 -1.4606184e-24 -0.017211432 -0.007604722 -0.0024879945
-0.038715683 -2.805734e-12 -0.005476963 -0.02360648 -0.012090117 -6.2037454e-23 -8.7287514e-24 -0.022633066
00000000: ca2f 14bc dc28 d3ae 588d 7bb4 91b4 48bb
00000010: 045c 62bd 2b0a 18bb 4cdd b43a c6e7 fbbc
00000020: 56c9 7ebc 792c 6eb6 626e 96bc 7b8a 26bc
00000030: faa4 5abb 067a 348a 9b6f 07a6 2f64 eda4
00000040: d219 11b7 df31 f8bc b263 17bb 5630 17b8
00000050: 0e05 e297 fdfe 8cbc 0831 f9bb 9f0d 23bb
00000060: 5694 1ebd 9c6f 45ac 1878 b3bb 6062 c1bc
00000070: a015 46bc 53ff 959a afd6 2899 fb68 b9bc

encoder_lin.0.weight f4 [128, 288]
0.001737284 0.0007382372 4.507793e-06 0.0012399266 0.0013973244 -0.00017124013 0.00012799978 0.00014209474
0.00015480058 -3.0520285e-34 3.617745e-34 -3.4511141e-34 -2.0241407e-34 -1.9651823e-34 1.5815517e-34 -9.397842e-36
-2.1920743e-35 2.683511e-35 -2.380671e-13 -5.843892e-14 -1.12361936e-13 5.1634744e-13 9.552218e-13 -2.2281993e-14
-1.950217e-12 -4.9828116e-14 -3.732055e-14 0.0119069945 0.0036842318 0.00858082 -0.0015757957 0.009146103
0.0020418756 0.004835172 0.0123683605 0.0031801562 0.0037922077 -0.004551427 0.014707596 0.026299914
0.007656491 0.006106709 0.0113437865 0.011795094 -0.0033390983 -9.343799e-05 -0.0003330405 0.0016034169
0.0003228154 -0.0011191647 0.0012129784 4.932535e-05 -0.0012061507 0.0003939259 0.016479922 0.0048694685
0.0069131963 0.020797675 -0.0033023274 -0.008312605 0.00058762607 -0.0019066315 -0.002963733 0.0153919775
0.009716439 0.00052166934 0.009619977 0.0029973905 -0.006067338 0.009255338 -0.007079822 -0.004772996
0.02425809 0.01803675 0.010099966 -0.00094535237 0.011340878 0.01018286 0.0132686915 0.008380427
0.016199214 3.7309198e-30 2.0492867e-30 -2.2557058e-30 -3.4921695e-30 5.696052e-31 1.2928949e-30 -1.2560921e-30
-1.2642167e-31 -1.4500921e-30 -6.3547835e-05 -0.00071974046 -0.00027903606 -0.000626468 -0.00155936 -0.00062639994
-0.0011812511 -0.0014000499 -0.0005143484 -0.00034738614 -5.981812e-05 -3.035801e-05 -3.068768e-05 -0.0005479636
-0.0008879459 0.00010068377 -0.0005740768 0.00026307153 0.020534456 0.0102583915 0.02133335 0.01257148
0.010656806 0.0023872717 0.01891443 0.0129052065 -0.0005855449 -4.928002e-34 -3.3523402e-34 -6.0666547e-34
-3.2843519e-34 8.358217e-35 -8.456326e-34 1.2256795e-34 9.223406e-35 -6.0921767e-34 6.02704e-40 4.61068e-40
3.936e-41 -4.6133e-40 -5.29696e-40 5.12453e-40 -4.13539e-40 4.90487e-40 -1.28035e-40 6.260905e-19
6.3416706e-20 1.0973472e-18 -4.257005e-19 -2.241292e-18 -2.3419348e-18 6.40548e-20 1.6036239e-18 1.934432e-18
-3.4624772e-09 -2.191534e-09 -2.83654e-09 7.3091155e-10 -5.003547e-09 -3.3494907e-09 3.7964667e-09 4.4665476e-09
1.9909459e-09 0.004559475 0.007842543 0.010399533 0.003857282 0.001481629 0.0021711742 0.006025448
-0.002382717 0.0011958249 0.011959304 0.018149437 0.033354297 0.026135346 0.021737663 0.01572253
0.0058557116 0.016206171 0.021777716 5.8188846e-14 -1.3155153e-07 -1.436766e-14 4.121774e-08 2.824291e-06
2.8037582e-07 1.8359279e-07 6.1392666e-06 -1.7317188e-07 -8.4815946e-26 -1.1364599e-25 -1.5406656e-25 -6.43105e-26
-1.8080217e-25 -4.136752e-25 -1.5440227e-25 -2.834194e-25 -2.1693256e-25 -0.0014986822 -0.0075120945 -0.0066708536
-0.006157911 -0.011751069 -0.011882423 -0.0092796525 -0.0120641235 -0.01025476 -0.0018432608 0.0057994155
0.0040268777 -0.0036404808 0.0007435133 0.0076840837 -0.0060291598 -0.00095409784 0.007410686 -1.3621435e-07
1.5626344e-07 5.963058e-08 -1.9537686e-07 -1.4030603e-07 7.7300335e-08 -2.8734254e-07 -3.4600072e-07 4.41781e-09
0.0106094675 0.010327569 0.022327239 0.0038433925 0.0030986154 0.0033888938 0.013986384 -0.002242068
0.003845186 6.855923e-14 1.4422583e-13 -4.1974887e-16 -6.640332e-14 4.7376263e-13 3.232428e-14 5.0864825e-13
-4.145297e-14 1.0395752e-15 4.714728e-05 -0.00064276974 0.0028154452 0.0004143975 -0.0010653617 0.0020549684
0.00050286093 -0.0007890507 0.0009557888 0.014444935 0.009197215 0.011430428 0.0010414846 0.0032079862
0.009930105 -0.0023118213 -0.0052282247 -0.0069859293 0.0030423426 0.003699471 0.0077168336 0.0064183776
00000000: 94b5 e33a 4386 413a a641 9736 0885 a23a
00000010: 6d26 b73a ec8e 33b9 ae37 0639 44ff 1439
00000020: f751 2239 93d7 ca87 be70 f007 aa5d e587
00000030: f886 8687 d89b 8287 6a39 5207 b8de 4785
00000040: f019 e985 0fae 0e06 1605 86aa be97 83a9
00000050: 3f04 fda9 c156 112b 7e6f 862b c7b2 c8a8
00000060: fc3b 09ac e867 60a9 aa13 28a9 8e15 433c
00000070: 2773 713b 9196 0c3c ee8a ceba 89d9 153c
00000080: fdd0 053b 5d70 9e3b aaa4 4a3c 2b6a 503b
00000090: b086 783b 2324 95bb 21f8 703c eb72 d73c
000000a0: 4de3 fa3b ca1a c83b 4adb 393c 3640 413c
000000b0: c6d4 5abb 24f4 c3b8 f09b aeb9 be29 d23a
000000c0: 8d3f a939 f0b0 92ba cdfc 9e3a b1e2 4e38
000000d0: b417 9eba d787 ce39 e700 873c 1090 9f3b
000000e0: 1888 e23b e35f aa3c dc6b 58bb 9831 08bc
000000f0: eb0a 1a3a f0e7 f9ba 303b 42bb a22e 7c3c
00000100: b331 1f3c a3c0 083a 1c9d 1d3c de6f 443b
00000110: 85d0 c6bb b4a3 173c dafd e7bb cb66 9cbb
00000120: e7b8 c63c cec1 933c 547a 253c 86d1 77ba
00000130: 17cf 393c 03d6 263c ed64 593c 0f4e 093c
00000140: 37b4 843c 1658 970e 0542 260e 2d01 378e
00000150: c3a8 8d8e f3d8 380d c1c8 d10d 06d0 cb8d
00000160: ce1a 248c 784a eb8d fc44 85b8 f7ac 3cba
00000170: 964b 92b9 8e39 24ba 7063 ccba fd34 24ba
00000180: 36d4 9aba e181 b7ba 56d5 06ba 6121 b6b9
00000190: 38e5 7ab8 54a9 feb7 a5b6 00b8 37a5 0fba
000001a0: 0ac5 68ba 3026 d338 a47d 16ba ddec 8939
000001b0: e037 a83c d012 283c 47c3 ae3c 9cf8 4d3c
000001c0: e299 2e3c c673 1c3b 6ff2 9a3c 5c70 533c
000001d0: 417f 19ba cec2 2388 1dcd de87 6499 4988
000001e0: 5a48 da87 1433 de06 3c81 8c88 b6eb 2207
000001f0: 4033 f506 8272 4a88 1890 0600 4505 0500
00000200: b86d 0000 0006 0580 94c4 0580 8394 0500
00000210: c780 0480 4757 0500 e964 0180 10ca 3821
00000220: 0cbd 951f 9bf0 a121 0a4a fba0 cf60 25a2
00000230: e6cd 2ca2 c03e 971f 33a7 ec21 63bc 0e22
00000240: 8bf0 6db1 e099 16b1 f0ec 42b1 54e9 4830
00000250: aaeb abb1 dd2c 66b1 1372 8231 2b78 9931
00000260: 17d1 0831 a667 953b 027e 003c ce62 2a3c
00000270: 74ca 7c3b 3833 c23a 424a 0e3b 1f71 c53b
00000280: 5c27 1cbb 3abd 9c3a f5f0 433c 21ae 943c
00000290: 849e 083d cb19 d63c 2f13 b23c 89cc 803c
000002a0: 45e1 bf3b cec2 843c 2e67 b23c 9607 8329
000002b0: 9c40 0db4 9269 81a8 6207 3133 f388 3d36
000002c0: 8f86 9634 9a21 4534 e6ff cd36 20f1 39b4
000002d0: 7efe d195 daaf 0c96 a4b9 3e96 9f39 9f95
000002e0: 7fd2 5f96 ba06 0097 0824 3f96 996d af96
000002f0: 5646 8696 6e6f c4ba 0428 f6bb 2d97 dabb
00000300: 4dc8 c9bb 8e87 40bc 7fae 42bc af09 18bc
00000310: 9aa8 45bc 9503 28bc 9299 f1ba 0609 be3b
00000320: e6f3 833b 2295 6ebb 55e8 423a c4ca fb3b
00000330: 4290 c5bb 6c1c 7aba 57d5 f23b 5142 12b4
00000340: 5ec9 2734 420e 8033 c8c8 51b4 07a7 16b4
00000350: 4f00 a633 0f44 9ab4 fac1 b9b4 78cb 9731
00000360: 55d3 2d3c f734 293c 9de7 b63c 6de1 7b3b
00000370: 2412 4b3b 3418 5e3b 2527 653c a9ef 12bb
00000380: 84ff 7b3b b561 9a29 4462 222a 00f8 f1a5
00000390: e886 95a9 325a 052b 5c93 1129 f82b 0f2b
000003a0: 05b0 3aa9 8ed1 9526 02c0 4538 8c7f 28ba
000003b0: 5583 383b 7e43 d939 9ba3 8bba a6ac 063b
000003c0: 6dd2 033a 4cd8 4eba e78d 7a3a 73aa 6c3c
000003d0: eaaf 163c b146 3b3c 6d82 883a 143d 523b
000003e0: e1b1 223c ed81 17bb 8751 abbb 39ea e4bb
000003f0: 0a62 473b d372 723b 7edd fc3b 4151 d23b

encoder_lin.0.bias f4 [128]
-0.0031987394 -2.8502937e-08 -0.0067346036 -0.024036134 -0.0027443205 -0.026264494 -0.0001265083 -0.020898292
-0.013946491 -0.004533548 -1.565849e-10 -0.017819412 -2.512623e-07 -0.028459694 -0.013741993 -0.017967641
-0.015726365 -2.1669554e-20 -0.014891753 -0.00046671505 -7.885618e-05 -0.0047780224 -0.0023120104 -9.559414e-05
-0.0032837128 -0.028292 -0.023338845 -0.01587587 -1.7469612e-05 -0.010475993 -0.013221121 -0.018008903
-0.019288702 -0.0066879215 -0.004379857 -5.6141786e-18 -0.0007803922 -0.0124567095 -0.021037381 -0.024429789
-0.022347663 -0.026432741 -1.1789848e-19 -0.0219076 -3.061742e-08 -0.019215576 -0.05252196 -0.015434218
-0.000802147 -1.1983113e-26 -2.8595102e-07 -2.5515924e-06 -5.78018e-17 -0.016140368 -1.1868344e-08 0.0021574374
-0.020521797 -0.01877151 -0.000734298 -0.009408758 -1.7358776e-10 -0.0054181763 -4.1520107e-11 -0.043127086
-0.012553277 -4.2648356e-09 0.0067508416 -0.024095502 -0.007952273 -0.015761498 -0.017359087 -2.1086292e-11
-0.02647956 -2.212683e-17 -9.367195e-22 -0.023770943 -0.011861256 -0.004284169 -0.007939525 -0.037249986
-0.03157063 -2.9540953e-08 -0.006559266 -0.00771069 -0.015839698 -0.002228577 -1.0486357e-12 -0.015086417
-0.035964977 -0.02202883 -0.014814461 -0.019791285 -0.042515397 -0.024107007 -0.016959775 -0.0043372395
-1.358868e-10 -3.3372534e-16 -0.008970304 -1.5530426e-33 -0.043936774 -1.2267302e-10 -1.530523e-08 -0.0007219848
-0.030874668 -0.0053501152 -0.020255849 -0.015984796 -0.017445061 -7.667861e-11 -0.01994657 -0.0051452024
-0.010604151 0.00077641103 -0.043044012 -0.014229347 -0.0010847121 0.00788397 -0.00974961 -0.0061781546
-0.01936332 -0.028016614 -1.3630139e-11 -0.004629653 -0.00025936955 -5.8119414e-05 -0.004647073 0.007695385
00000000: f1a1 51bb 9fd6 f4b2 f3ad dcbb 6de7 c4bc
00000010: 0fda 33bb a328 d7bc 50a7 04b9 e532 abbc
00000020: d37f 64bc 288e 94bb bb2a 2caf 04fa 91bc
00000030: 3ae5 86b4 4e24 e9bc 1926 61bc e030 93bc
00000040: 94d4 80bc c4a9 cc9e 8afc 73bc 6fb1 f4b9
00000050: 975f a5b8 f590 9cbb 1985 17bb b779 c8b8
00000060: 8f33 57bb a0c4 e7bc 1b31 bfbc 1d0e 82bc
00000070: b58b 92b7 80a3 2bbc 679d 58bc 6887 93bc
00000080: 5703 9ebc 5a26 dbbb e784 8fbb 6b20 cfa2
00000090: 3c93 4cba 3a17 4cbc 9656 acbc fb20 c8bc
000000a0: 7212 b7bc 7a89 d8bc a130 0ba0 9177 b3bc
000000b0: 3680 03b3 fc69 9dbc 4421 57bd cddf 7cbc
000000c0: 2d47 52ba 9a59 6d94 cf84 99b4 063c 2bb6
000000d0: 2948 85a4 ce38 84bc 87e5 4bb2 cb63 0d3b
000000e0: 541d a8bc b6c6 99bc e87d 40ba 3127 1abc
000000f0: 9cdc 3eaf f58a b1bb 7c9b 36ae 07a6 30bd
00000100: 43ac 4dbc e489 92b1 2a36 dd3b ee63 c5bc
00000110: 404a 02bc 421e 81bc a534 8ebc 1c7a b9ad
00000120: aaeb d8bc 8015 cca3 958d 8d9c 48bb c2bc
00000130: b755 42bc 3762 8cbb c814 02bc 7193 18bd
00000140: 3450 01bd 3ec1 fdb2 1cef d6bb f5a9 fcbb
00000150: 41c2 81bc 510d 12bb 1595 93ab 052d 77bc
00000160: 0350 13bd ce75 b4bc 5ab8 72bc 5521 a2bc
00000170: a024 2ebd 0f7c c5bc 3aef 8abc 671f 8ebb
00000180: bc68 15af 2b61 c0a5 2ff8 12bc 9005 0189
00000190: 0cf7 33bd 63e1 06af 8f78 83b2 9443 3dba
000001a0: dfec fcbc 0550 afbb 98ef a5bc 8cf2 82bc
000001b0: f2e8 8ebc 389e a8ae fd66 a3bc 1699 a8bb
000001c0: 08bd 2dbc 1088 4b3a eb4e 30bd 3522 69bc
000001d0: e62c 8eba c42b 013c d4bc 1fbc 1e72 cabb
000001e0: d39f 9ebc 1983 e5bc b0c8 6fad 58b4 97bb
000001f0: fefb 87b9 3fc5 73b8 7946 98bb 9129 fc3b

encoder_lin.2.weight f4 [2, 128]
0.0014734181 -0.00021033394 -0.0371292 0.03213383 0.006285187 -0.08369555 -0.00021167113 0.10571165
0.028354075 -0.014825019 -1.0271995e-08 0.12689056 -2.3974528e-06 -0.12759578 -0.02910837 0.04327454
-0.052523788 -1.4603807e-20 -0.024291888 -0.00041677614 6.1857456e-05 -0.01956481 -0.0028297952 0.00042320095
0.004310986 -0.06455412 0.09750523 0.03520385 -5.489907e-06 0.083568335 -0.11317297 -0.064252675
-0.06084043 -0.07665351 -0.012587677 -1.9572495e-17 0.0002255078 0.12137848 -0.032907158 -0.069140665
0.13994204 0.022631833 -2.903477e-19 0.14383921 1.160419e-08 -0.071172684 -0.16000205 0.08449921
-0.0005804667 -7.466761e-27 4.0405703e-07 -9.7894535e-06 2.0846728e-16 -0.052106455 8.8886125e-09 -0.093196474
0.168303 -0.036834836 0.006366599 0.13741712 -0.0012577622 0.01783372 -5.5862842e-11 -0.13454735
-0.03815385 2.708437e-09 -0.12987712 0.053399798 0.012713738 0.14216596 -0.058257453 -1.0102699e-09
0.13545011 -3.07896e-17 2.811398e-21 -0.09275305 0.14336912 -0.10942918 0.045928072 -0.06325153
-0.08994264 2.360586e-09 -0.040072095 0.04251535 0.034138333 0.002376495 -0.0001550133 -0.046861656
-0.08219428 0.10053194 -0.016789531 0.102507584 0.056515668 0.0025842425 0.012978154 -0.015961444
2.2153283e-11 -6.281775e-11 -0.0028715774 -2.417597e-33 0.037667558 -1.5897398e-09 9.945727e-09 0.00022247423
0.02306018 0.01586049 -0.03961811 -0.058166668 0.1590716 2.6013736e-11 -0.051987242 -0.024119405
-0.017129363 -0.07820213 -0.1433502 -0.058576886 -0.0017927294 -0.15545236 0.04610721 -0.033569615
-0.051749546 0.0936325 -1.1884736e-12 -0.0052275043 -0.00026811424 -0.0005145053 0.014394429 -0.14442976
-0.09132813 0.0005700307 0.022886714 -0.08682945 -0.0071139988 -0.092383794 0.00014070226 0.1957364
-0.028825924 -0.06334767 -7.006578e-09 -0.021942168 4.0128684e-06 0.107942715 0.1836205 -0.046711855
-0.047971524 5.4664515e-20 0.16434216 -8.293754e-06 -0.0002800001 -0.042919807 0.004454556 0.0004081462
0.0020201805 -0.07403601 -0.0009530883 -0.041322544 -1.6827495e-05 -0.0051540737 0.09457355 -0.06102175
-0.059760656 0.06405244 -0.06065554 1.8161324e-17 -0.00013561353 0.0081242835 -0.070414096 0.0379463
0.060219176 -0.1078228 -3.1256087e-19 0.065118894 3.7933397e-08 -0.066911586 0.07827808 0.16486815
-0.0058231754 2.9498018e-26 8.2264813e-07 -4.644779e-08 -7.088423e-17 -0.047314428 4.577038e-09 0.014269622
0.08689202 -0.03994111 -0.009265963 -0.029255675 -0.001154359 0.03347302 -3.3836955e-10 0.07201637
0.07217211 8.065205e-09 0.026001923 -0.053115156 -0.011057924 0.006150331 -0.055009007 -1.5561938e-10
0.012965988 -1.056781e-18 5.113048e-21 0.06935416 0.022544757 0.104152195 0.22030282 -0.0954779
0.042112652 -5.2343214e-08 -0.10307149 0.19093221 -0.038930755 -0.0015092887 0.00014946442 0.11610004
-0.098539725 0.023787154 0.22122043 -0.036462333 -0.11695782 -0.08268414 -0.03537118 -0.101945974
-1.1420856e-10 4.3738978e-11 -0.013174004 -7.3837337e-34 -0.10385446 -2.3215625e-08 2.229546e-08 -0.0063268766
-0.07493603 0.030811157 -0.044198405 0.06798408 0.09562762 1.5390125e-12 -0.09082043 0.012307913
0.07909463 0.008532345 0.082608335 -0.037770458 0.0006803109 0.033978578 0.08949201 0.021087084
-0.04973461 -0.06503722 7.483305e-12 -0.008229559 0.0002748338 -0.0005560134 0.026596148 0.030831104
00000000: b51f c13a 168d 5cb9 ca14 18bd c39e 033d
00000010: f8f3 cd3b 9368 abbd 09f4 5db9 597f d83d
00000020: ce46 e83c a3e4 72bc b678 30b2 99ef 013e
00000030: ede3 20b6 78a8 02be ad74 eebc a540 313d
00000040: 2f23 57bd d7ed 899e c8ff c6bc bf82 dab9
00000050: 78b9 8138 6146 a0bc 1674 39bb 12e1 dd39
00000060: 2c43 8d3b f334 84bd d2b0 c73d ea31 103d
00000070: f135 b8b6 e025 ab3d 3bc7 e7bd e896 83bd
00000080: d133 79bd 84fc 9cbd 8b3c 4ebc 3f86 b4a3
00000090: 4a76 6c39 4895 f83d a8c9 06bd 9f99 8dbd
000000a0: f74c 0f3e 6566 b93c 1b64 aba0 964a 133e
000000b0: c45b 4732 fcc2 91bd 94d7 23be ec0d ad3d
000000c0: 762a 18ba fae4 1394 2ded d834 623d 24b7
000000d0: ae58 7025 946d 55bd 88b4 1832 cbdd bebd
000000e0: 9f57 2c3e 20e0 16bd e79e d03b 13b7 0c3e
000000f0: 7fdb a4ba 0618 923c f8af 75ae c8c6 09be
00000100: 3647 1cbd 541f 3a31 82fe 04be bfb9 5a3d
00000110: 484d 503c f493 113e 5e9f 6ebd b6d9 8ab0
00000120: 6fb3 0a3e f2fd 0da4 596c 541d 50f5 bdbd
00000130: 5bcf 123e 681c e0bd 131f 3c3d 058a 81bd
00000140: d933 b8bd de37 2231 a322 24bd 9324 2e3d
00000150: a3d4 0b3d f8be 1b3b 118b 22b9 02f2 3fbd
00000160: 7a55 a8bd b1e3 cd3d 338a 89bc 7fef d13d
00000170: f97c 673d 655c 293b 53a2 543c 93c1 82bc
00000180: c2dc c22d 4023 8aae 1331 3cbb 9ad8 4889
00000190: 4c49 1a3d ff7d dab0 c5dd 2a32 f947 6939
000001a0: b4e8 bc3c dced 813c 9946 22bd 2c40 6ebd
000001b0: aae3 223e bad1 e42d 93f0 54bd 0f96 c5bc
000001c0: e152 8cbc 7028 a0bd 65ca 12be 51ee 6fbd
000001d0: 04fa eaba e72e 1fbe eada 3c3d 4b80 09bd
000001e0: 55f7 53bd 65c2 bf3d 4643 a7ab 7c4b abbb
000001f0: af91 8cb9 dedf 06ba 9cd6 6b3c 65e5 13be
00000200: 3e0a bbbd 1d6e 153a eb7c bb3c a4d3 b1bd
00000210: 8c1c e9bb b733 bdbd 7a89 1339 1f6f 483e
00000220: 5824 ecbc 6cbc 81bd 83be f0b1 10c0 b3bc
00000230: 47a6 8636 1211 dd3d 0307 3c3e ee54 3fbd
00000240: ca7d 44bd ac12 811f 5049 283e 6725 0bb7
00000250: facc 92b9 aecc 2fbd 86f7 913b 75fc d539
00000260: 0165 043b 31a0 97bd acd8 79ba d441 29bd
00000270: c528 8db7 81e3 a8bb c7af c13d f1f1 79bd
00000280: 97c7 74bd ed2d 833d f271 78bd 3782 a723
00000290: 7b33 0eb9 b71b 053c 4435 90bd 946d 1b3d
000002a0: 62a8 763d 33d2 dcbd dd80 b8a0 0e5d 853d
000002b0: 36ec 2233 f108 89bd 4250 a03d 32d3 283e
000002c0: 56d0 bebb 2e11 1215 f3d3 5c35 e37d 47b3
000002d0: aa72 a3a4 c6cc 41bd 0d44 9d31 22cb 693c
000002e0: 72f4 b13d 4a99 23bd 44d0 17bc 99a9 efbc
000002f0: dc4d 97ba 011b 093d 4805 baaf 527d 933d
00000300: f9ce 933d 268f 0a32 fc01 d53c 478f 59bd
00000310: 4b2c 35bc b788 c93b 2051 61bd f61a 2baf
00000320: 4c6f 543c 0ff4 9ba1 5e2a c11d 8e09 8e3d
00000330: c8af b83c bf4d d53d 1097 613e eb89 c3bd
00000340: 517e 2c3d f9cf 60b3 2517 d3bd bc83 433e
00000350: db75 1fbd 53d3 c5ba 8db9 1c39 dcc5 ed3d
00000360: 32cf c9bd 47dd c23c 9c87 623e 8759 15bd
00000370: 9587 efbd 4d56 a9bd 5fe1 10bd 0dc9 d0bd
00000380: b425 fbae b65d 402e c7d7 57bc dc5d 7588
00000390: a6b1 d4bd b36b c7b2 3c84 bf32 b051 cfbb
000003a0: 1078 99bd ae67 fc3c 6309 35bd 3d3b 8b3d
000003b0: 6ad8 c33d c598 d82b 1000 babd 21a7 493c
000003c0: 5efc a13d 40cb 0b3c 8f2e a93d 32b5 1abd
000003d0: e456 323a 1f2d 0b3d 9647 b73d d2be ac3c
000003e0: 85b6 4bbd 3c32 85bd cfa5 032d 46d5 06bc
000003f0: 9117 9039 6dc1 11ba 2ae0 d93c 8391 fc3c

encoder_lin.2.bias f4 [2]
0.024427474 0.018431535
00000000: 201c c83c bbfd 963c

28 f4 [16, 8, 3, 3]
-0.21759807 -0.26582283 -0.13385226 -0.08146013 -0.10111287 -0.052891985 -0.25057492 -0.17512076
-0.31249106 0.34445605 0.6528199 0.49090463 0.5403267 0.58767104 0.45279852 0.16010867
0.5266223 0.33271384 0.5280767 0.055485744 0.28419214 0.2913847 -0.1713165 0.06119244
0.3913649 0.076441415 0.45949727 0.6688443 1.1463065 0.5904388 0.85750514 0.9485147
0.40346336 0.47616 0.74439806 -0.1781952 -0.2746459 -0.40891725 -0.39211044 -0.21674292
-0.5386691 -0.043957435 -0.18922472 -0.22232077 -0.29115045 -0.7953237 -0.15683529 0.32134587
-0.89334583 0.080258064 0.8578216 -0.08781402 0.43783927 1.186979 2.0564397e-17 -2.482277e-18
-4.239495e-18 -3.9748967e-17 3.0671092e-18 -1.0736012e-17 -2.7028404e-18 -8.041866e-18 4.281729e-18 -0.18770853
-0.3977894 -0.020675838 -0.104456745 -0.11298483 -0.24140687 -0.06393018 -0.18706262 -0.35183716
-0.18014522 -0.27746624 -0.19505692 -0.0072129206 -0.560503 -0.37482077 -0.120057955 -0.18572235
-0.26266423 0.28129932 -0.29229808 -0.053315025 0.015593447 -0.4630751 -0.20502214 0.31187993
-0.40694973 -0.10850706 -0.18729018 0.21444498 -0.05059515 -0.11027246 0.34686917 0.006632243
-0.34056747 0.07977445 -0.15139502 -0.05682706 -0.15654787 0.32223827 -0.28172058 -0.14605013
0.16566412 -0.13044856 -0.02392766 0.32418576 -0.304617 -0.27045742 -0.27019885 -0.120807745
-0.121931836 -0.12882183 0.06903823 0.08372442 0.046354517 -0.45843646 0.7457071 -0.18541335
0.3700816 1.7935072 0.15796706 -0.62269366 0.6119418 -0.2034915 1.7285977e-17 -2.6589146e-18
9.792704e-18 -2.2979924e-17 7.569356e-18 1.4216624e-18 -3.4902257e-18 5.599487e-18 9.330223e-18 -0.04635766
-0.39138374 -0.28684074 -0.3234774 -0.4763202 -0.3040199 -0.2893544 -0.5068993 -0.4106739
-0.15041105 -0.19141261 -0.12218103 -0.059213836 -0.07256664 -0.0077330577 -0.18590745 -0.12925005
-0.2578697 0.31573674 0.6039075 0.45860973 0.4452705 0.5153743 0.3799425 0.12001816
0.4624893 0.27943802 0.53989947 0.055981662 0.25251117 0.17244995 -0.14722005 0.06866357
0.43819043 0.08222531 0.41278532 0.69114065 1.0441581 0.52193564 0.8254419 0.83565724
0.32481408 0.4343669 0.6305426 -0.17520817 -0.20643644 -0.3393598 -0.34385133 -0.15897262
-0.41237864 -0.0019098473 -0.196376 -0.18793422 -0.2467651 -0.7369392 -0.22781101 0.20942771
-0.78462654 0.02403199 0.78305763 -0.04933461 0.3825952 1.0776743 -5.86959e-18 4.8694766e-18
-6.3255047e-18 1.4940614e-17 -6.8191752e-18 -6.4875097e-18 2.384376e-17 -6.0919966e-18 2.1100583e-17 -0.15227816
-0.32289168 0.03351078 -0.022153039 -0.06241525 -0.19031145 0.0010902305 -0.113608204 -0.25970975
-0.6910362 -0.7290661 -0.49237525 -0.779964 -1.3749886 -1.1608204 -0.7429883 -1.2595415
-0.9235356 0.07573564 0.0335838 -0.37361413 0.64952815 0.17201632 -0.058030766 0.5443589
0.547445 -0.045024425 -0.62153023 0.057648633 0.46684307 -0.7321743 -0.15063648 0.057528116
-0.65492445 -0.30993518 0.027465515 0.17654686 0.043082323 -0.5687798 0.61180985 0.42722207
-0.0011204422 0.82134813 0.67179286 0.04091902 -1.0026011 -1.0184908 -0.54623616 -0.9257854
00000000: 07d2 5ebe ee19 88be 9110 09be 92d4 a6bd
00000010: 4414 cfbd 44a5 58bd 5b4b 80be db52 33be
00000020: d4fe 9fbe 8b5c b03e 341f 273f da57 fb3e
00000030: da52 0a3f 9c71 163f 35d5 e73e 87f3 233e
00000040: b8d0 063f 7859 aa3e 0930 073f 0545 633d
00000050: a281 913e 6030 953e 986d 2fbe eda4 7a3d
00000060: fb60 c83e 518d 9c3d 3a43 eb3e 6139 2b3f
00000070: 2cba 923f ff26 173f 7585 5b3f dcd1 723f
00000080: c092 ce3e 3ecb f33e df90 3e3f cd78 36be
00000090: 639e 8cbe 9a5d d1be b3c2 c8be dbf1 5dbe
000000a0: 38e6 09bf b60c 34bd 20c4 41be 0ea8 63be
000000b0: ac11 95be 569a 4bbf 6e99 20be 7287 a43e
000000c0: 50b2 64bf 575e a43d 329a 5b3f d6d7 b3bd
000000d0: 782c e03e eeee 973f 4fac bd23 e328 37a2
000000e0: e668 9ca2 4c4f 37a4 0e50 6222 620b 46a3
000000f0: 366f 47a2 a358 14a3 c9f7 9d22 aa36 40be
00000100: 0dab cbbe 6060 a9bc 6bed d5bd 9764 e7bd
00000110: 5d33 77be d4ed 82bd 588d 3fbe 0024 b4be
00000120: fd77 38be 0e10 8ebe 00bd 47be 5d5a ecbb
00000130: 207d 0fbf 82e8 bfbe f2e0 f5bd 002e 3ebe
00000140: ed7b 86be 7706 903e 18a8 95be db60 5abd
00000150: a87b 7f3c 2e18 edbe 53f1 51be baae 9f3e
00000160: b75b d0be f338 debd ffc8 3fbe 7797 5b3e
00000170: dc3c 4fbd 87d6 e1bd d698 b13e 4953 d93b
00000180: dc5e aebe c960 a33d 4c07 1bbe 7ec3 68bd
00000190: 164e 20be 6afc a43e ae3d 90be 2a8e 15be
000001a0: dba3 293e 4f94 05be f103 c4bc adfb a53e
000001b0: c2f6 9bbe 6579 8abe 8157 8abe 0d6a f7bd
000001c0: 66b7 f9bd dfe9 03be ea63 8d3d b577 ab3d
000001d0: 3cde 3d3d 2fb8 eabe a9e6 3e3f ffdc 3dbe
000001e0: 567b bd3e a591 e53f 1ec2 213e da68 1fbf
000001f0: 38a8 1c3f 1360 50be 5c6f 9f23 7a31 44a2
00000200: bda4 3423 d0f3 d3a3 46a1 0b23 e3cc d121
00000210: 40c4 80a2 a995 ce22 bb1c 2c23 88e1 3dbd
00000220: 7363 c8be cadc 92be d49e a5be 3ee0 f3be
00000230: 7fa8 9bbe 4326 94be 27c4 01bf d943 d2be
00000240: 5b05 1abe ab01 44be 0c3a fabd 358a 72bd
00000250: d29d 94bd 9765 fdbb 865e 3ebe 205a 04be
00000260: 7f07 84be 3fa8 a13e af99 1a3f e5ce ea3e
00000270: 7ffa e33e 92ef 033f d387 c23e 15cc f53d
00000280: 66cb ec3e 8012 8f3e da36 0a3f 074d 653d
00000290: 2549 813e b896 303e dac0 16be 7c9f 8c3d
000002a0: 7f5a e03e be65 a83d 9958 d33e 98ee 303f
000002b0: f9a6 853f 939d 053f 2950 533f a2ed 553f
000002c0: 084e a63e 5765 de3e 3d6b 213f c569 33be
000002d0: 1364 53be 91c0 adbe 480d b0be b8c9 22be
000002e0: 4b23 d3be d753 faba ca16 49be d471 40be
000002f0: feaf 7cbe 0ca8 3cbf 4a47 69be 3874 563e
00000300: 49dd 48bf bcde c43c 7776 483f 1713 4abd
00000310: 85e3 c33e 3bf1 893f b68c d8a2 e8a6 b322
00000320: b45e e9a2 87cd 8923 4a95 fba2 cc58 efa2
00000330: 7deb db23 48c1 e0a2 589e c223 ceee 1bbe
00000340: 0f52 a5be 9a42 093d 4a7a b5bc 22a7 7fbd
00000350: 01e1 42be 11e6 8e3a 6bab e8bd adf8 84be
00000360: c0e7 30bf 13a4 3abf 9c18 fcbe b9ab 47bf
00000370: a0ff afbf c395 94bf 7b34 3ebf a838 a1bf
00000380: d46c 6cbf 4a1b 9b3d 2b8f 093d 5a4a bfbe
00000390: 7a47 263f 0c25 303e abb1 6dbd 1b5b 0b3f
000003a0: 5b25 0c3f 886b 38bd 9b1c 1fbf f920 6c3d
000003b0: 0e06 ef3e c66f 3bbf 7340 1abe 9aa2 6b3d
000003c0: 21a9 27bf d3af 9ebe 5cff e03c b3c8 343e
000003d0: 1777 303d 8e9b 11bf 929f 1c3f dabc da3e
000003e0: cddb 92ba df43 523f 9efa 2b3f b49a 273d
000003f0: 3c55 80bf e85d 82bf 22d6 0bbf 4600 6dbf

29 f4 [16]
-0.44809517 0.076147884 -0.40114638 -0.0392607 -0.273057 0.12175435 -0.23236106 -0.2000122
0.49146742 -0.2535889 0.43237722 -0.31548217 0.0028700605 -0.000277536 -0.06881556 -0.17940475
00000000: bb6c e5be 6cf3 9b3d 0f63 cdbe d4cf 20bd
00000010: 21ce 8bbe 585a f93d 0ff0 6dbe 00d0 4cbe
00000020: 9ea1 fb3e 68d6 81be 8c60 dd3e e186 a1be
00000030: a017 3c3b 4082 91b9 2cef 8cbd e1b5 37be
